scene/checkpoints/clip_vit-b32_improved_head.pth (torch, 665753 bytes, 8 tensors)

0.weight f4 [512]
0	0xc16ce84b	-14.806712
1	0xc16d8c64	-14.846775
2	0xc16cd82f	-14.802779
3	0xc16d9c4b	-14.850657
4	0xc16d708b	-14.839976
5	0xc16cf1da	-14.809046
6	0xc16d2b9f	-14.82315
7	0xc16d9a0e	-14.850111
8	0xc16d0f97	-14.816306
9	0xc16c20ac	-14.757977
10	0xc16aaf24	-14.667759
11	0xc16cf07a	-14.80871
12	0xc16cd582	-14.802126
13	0xc16be75a	-14.743982
14	0xc1689987	-14.537482
15	0xc16d77d4	-14.841755
16	0xc16b2742	-14.697084
17	0xc16b109b	-14.691554
18	0xc16a1792	-14.630754
19	0xc16aee40	-14.6831665
20	0xc16d602a	-14.835978
21	0xc16c4c66	-14.768652
22	0xc16d7873	-14.841907
23	0xc169e8ec	-14.619366
24	0xc16be7a0	-14.744049
25	0xc16d048c	-14.81361
26	0xc16d7576	-14.841177
27	0xc16d3bc1	-14.827088
28	0xc0f8e680	-7.778137
29	0xc16d6592	-14.837297
30	0xc16d8a19	-14.846215
31	0xc16aeaae	-14.682295
32	0xc16d97b2	-14.849535
33	0xc16d1af8	-14.819084
34	0xc16d4839	-14.8301325
35	0xc16d3513	-14.825458
36	0xc16890f7	-14.535392
37	0xc16d6b8a	-14.838755
38	0xc16ca731	-14.790818
39	0xc16b3c51	-14.702226
40	0xc16b5e38	-14.710503
41	0xc16a5945	-14.646794
42	0xc16d8ff5	-14.847646
43	0xc1695509	-14.583261
44	0xc16d4ceb	-14.831279
45	0xc16d8f95	-14.847554
46	0xc16cdc2d	-14.803754
47	0xc16c81ba	-14.781672
48	0xc16d7ede	-14.843473
49	0xc16cc37f	-14.797729
50	0xc16d6c80	-14.838989
51	0xc16c541e	-14.770536
52	0xc16d2293	-14.820941
53	0xc16d4e67	-14.831641
54	0xc169bb25	-14.60819
55	0xc16d450b	-14.829356
56	0xc16d0e1d	-14.815946
57	0xc16d6a36	-14.83843
58	0xc16cf9e8	-14.811012
59	0xc16cd0da	-14.800989
60	0xc16b5d29	-14.710244
61	0xc16d7d95	-14.84316
62	0xc16d3816	-14.826193
63	0xc16d9366	-14.848486
64	0xc16d5bbf	-14.834899
65	0xc16d41ca	-14.828562
66	0xc16d503d	-14.832089
67	0xc16bd053	-14.73836
68	0xc16d0d2e	-14.815718
69	0xc16d63b9	-14.836846
70	0xc16d6c47	-14.838935
71	0xc16a8152	-14.656572
72	0xc16d8634	-14.845264
73	0xc16aec70	-14.682724
74	0xc16a0063	-14.625094
75	0xc16d8159	-14.844079
76	0xc16d76ed	-14.841535
77	0xc1674384	-14.453983
78	0xc16b749e	-14.715971
79	0xc16b3cf8	-14.702385
80	0xc16d8a3d	-14.84625
81	0xc16d824b	-14.84431
82	0xc1571efb	-13.445064
83	0xc16cb6ac	-14.794598
84	0xc16c4f17	-14.769309
85	0xc16d55cb	-14.833446
86	0xc16d2111	-14.820573
87	0xc16d0c08	-14.815437
88	0xc16c5022	-14.769564
89	0xc1569214	-13.410664
90	0xc1602f98	-14.01162
91	0xc16d7bf9	-14.842767
92	0xc16c81b9	-14.781671
93	0xc16d8ee8	-14.847389
94	0xc135facb	-11.373729
95	0xc16ca1b9	-14.789483
96	0xc16cf329	-14.809365
97	0xc16c999b	-14.787501
98	0xc1602932	-14.010057
99	0xc16d13d9	-14.817346
100	0xc16d5b0a	-14.834726
101	0xc157f151	-13.496415
102	0xc16c3e90	-14.765274
103	0xc16bb5eb	-14.731914
104	0xc16d0723	-14.814242
105	0xc16d4f8a	-14.831919
106	0xc16cfff9	-14.812493
107	0xc16cbf49	-14.7967005
108	0xc1684374	-14.516468
109	0xc16a564f	-14.646071
110	0xc16d823f	-14.844298
111	0xc16d4b07	-14.830817
112	0xc16d77d0	-14.841751
113	0xc16cf82b	-14.810588
114	0xc16d33cd	-14.825147
115	0xc109fa04	-8.623539
116	0xc16cfebf	-14.812194
117	0xc166837d	-14.407102
118	0xc16d22af	-14.820968
119	0xc16d76d0	-14.841507
120	0xc16c920b	-14.785655
121	0xc16c9451	-14.78621
122	0xc16ac4b3	-14.673022
123	0xc16d7524	-14.841099
124	0xc16d9329	-14.848428
125	0xc16d398c	-14.82655
126	0xc16ce71d	-14.806424
127	0xc16d831e	-14.844511
128	0xc16d895f	-14.846038
129	0xc16cdbf4	-14.8036995
130	0xc16d070e	-14.814222
131	0xc16bda90	-14.74086
132	0xc16c1cab	-14.756999
133	0xc16d6bbc	-14.838802
134	0xc16d4a24	-14.830601
135	0xc16d8ff8	-14.847649
136	0xc16c6db8	-14.776787
137	0xc16cfce5	-14.811742
138	0xc16d298f	-14.822646
139	0xc16d5d9f	-14.835357
140	0xc16cd0db	-14.80099
141	0xc16d6e2c	-14.839397
142	0xc16d3b32	-14.826952
143	0xc16d31a2	-14.824617
144	0xc16b9715	-14.724385
145	0xc16c8fc8	-14.785103
146	0xc1647200	-14.277832
147	0xc16cd7e4	-14.802708
148	0xc16d4ac3	-14.830752
149	0xc16d7f6c	-14.843609
150	0xc16d5613	-14.833514
151	0xc16d1374	-14.817249
152	0xc16d51b8	-14.832451
153	0xc16d6068	-14.836037
154	0xc16d8457	-14.84481
155	0xc16c2a45	-14.76032
156	0xc16bed37	-14.745414
157	0xc15f8154	-13.969074
158	0xc16c44f5	-14.766835
159	0xc16b0979	-14.689813
160	0xc16d23a1	-14.821198
161	0xc16d24de	-14.821501
162	0xc16d72fc	-14.840572
163	0xc169262f	-14.571822
164	0xc16a49a8	-14.6429825
165	0xc1688947	-14.533515
166	0xc16c08cf	-14.752151
167	0xc16d857e	-14.845091
168	0xc165dbb3	-14.3661375
169	0xc16aa32b	-14.664836
170	0xc16b9e27	-14.726111
171	0xc16cedf3	-14.808093
172	0xc16aa0bf	-14.664245
173	0xc16d2fb5	-14.824147
174	0xc1612cdd	-14.073453
175	0xc168fc47	-14.561591
176	0xc1589c53	-13.538165
177	0xc16c31c4	-14.76215
178	0xc16d587d	-14.834104
179	0xc16d9388	-14.848518
180	0xc16d54a6	-14.833166
181	0xc16c15ba	-14.755304
182	0xc16b8082	-14.718874
183	0xc16c21bc	-14.758236
184	0xc16d69b3	-14.838305
185	0xc16d9a2b	-14.850139
186	0xc16ca01d	-14.78909
187	0xc16d5ec1	-14.835633
188	0xc16d1893	-14.8185
189	0xc16633c4	-14.387638
190	0xc16d1b1a	-14.819117
191	0xc16c3205	-14.762212
192	0xc16beb0a	-14.744883
193	0xc16d7d28	-14.843056
194	0xc16c0a0e	-14.752455
195	0xc16b3e15	-14.702657
196	0xc16974d5	-14.591023
197	0xc16d2114	-14.820576
198	0xc169db0a	-14.615976
199	0xc16cddbb	-14.804133
200	0xc16d85d3	-14.845172
201	0xc16d423e	-14.828672
202	0xc1683b0d	-14.514417
203	0xc16da3ab	-14.852458
204	0xc16d5deb	-14.835429
205	0xc16c4720	-14.7673645
206	0xc16ac378	-14.672722
207	0xc16d6246	-14.836493
208	0xc16b829a	-14.719385
209	0xc16c7b52	-14.7801075
210	0xc16c64cf	-14.774611
211	0xc16d9443	-14.848697
212	0xc16c6495	-14.774556
213	0xc16bba89	-14.733041
214	0xc16d06c0	-14.814148
215	0xc16caa42	-14.791567
216	0xc16d3f53	-14.82796
217	0xc16d6d3c	-14.839169
218	0xc16ccebb	-14.800471
219	0xc16d5102	-14.832277
220	0xc16d861e	-14.845243
221	0xc16cb56f	-14.794295
222	0xc16d803e	-14.843809
223	0xc16d4709	-14.829843
224	0xc16d8131	-14.844041
225	0xc1629fb2	-14.163988
226	0xc16d5e43	-14.835513
227	0xc16cce65	-14.800389
228	0xc16c14ac	-14.755047
229	0xc16d73ff	-14.840819
230	0xc1623f4a	-14.140451
231	0xc16a5bb3	-14.6473875
232	0xc16a54c8	-14.645699
233	0xc16d9b6d	-14.850446
234	0xc16d3930	-14.826462
235	0xc16a83bf	-14.657165
236	0xc1673952	-14.451494
237	0xc16d33e8	-14.825172
238	0xc16c9b16	-14.787863
239	0xc16d9717	-14.849387
240	0xc167601f	-14.460967
241	0xc16d3e33	-14.827685
242	0xc16d011e	-14.812773
243	0xc16d7d74	-14.843128
244	0xc16d0f30	-14.816208
245	0xc169caa0	-14.611969
246	0xc16d806b	-14.843852
247	0xc16d7de5	-14.843236
248	0xc16a0dd8	-14.62838
249	0xc16d922b	-14.848186
250	0xc1645386	-14.270391
251	0xc16c675f	-14.775237
252	0xc16cfeb4	-14.812183
253	0xc16d7ba9	-14.84269
254	0xc16b7eca	-14.718454
255	0xc16bd2f3	-14.739001

0.bias f4 [512]
0	0xc17d9b50	-15.850418
1	0xc17d9eea	-15.851297
2	0xc17d9af9	-15.850335
3	0xc17d9fe8	-15.85154
4	0xc17d9dce	-15.851027
5	0xc17d9c49	-15.850656
6	0xc17d9d78	-15.8509445
7	0xc17d9fe4	-15.851536
8	0xc17d9cd9	-15.850793
9	0xc17d8be3	-15.846652
10	0xc17d6651	-15.83748
11	0xc17d9b97	-15.850486
12	0xc17d9af2	-15.850328
13	0xc17d85d7	-15.845176
14	0xc17cfc75	-15.811635
15	0xc17d9ea3	-15.85123
16	0xc17d71ea	-15.840311
17	0xc17d7017	-15.839866
18	0xc17d4cd9	-15.831262
19	0xc17d6af9	-15.838616
20	0xc17d9e34	-15.851124
21	0xc17d8d1e	-15.846952
22	0xc17d9ea5	-15.851232
23	0xc17d4519	-15.82937
24	0xc17d85d7	-15.845176
25	0xc17d9caa	-15.850748
26	0xc17d9e9b	-15.851222
27	0xc17d9daf	-15.850997
28	0xc082bc1c	-4.0854626
29	0xc17d9e3d	-15.851132
30	0xc17d9edf	-15.851287
31	0xc17d6a61	-15.838471
32	0xc17d9fa8	-15.851479
33	0xc17d9d2f	-15.850875
34	0xc17d9dd5	-15.851033
35	0xc17d9d9b	-15.850978
36	0xc17cf90c	-15.810802
37	0xc17d9e83	-15.851199
38	0xc17d966e	-15.849226
39	0xc17d787a	-15.841913
40	0xc17d7b3c	-15.8425865
41	0xc17d5695	-15.833638
42	0xc17d9ef4	-15.851307
43	0xc17d299a	-15.822657
44	0xc17d9de6	-15.851049
45	0xc17d9ef3	-15.851306
46	0xc17d9b0a	-15.850351
47	0xc17d9541	-15.848939
48	0xc17d9ec6	-15.851263
49	0xc17d9a5a	-15.8501835
50	0xc17d9e85	-15.851201
51	0xc17d92ec	-15.84837
52	0xc17d9d4e	-15.850904
53	0xc17d9dec	-15.851055
54	0xc17d3b46	-15.826971
55	0xc17d9dca	-15.851023
56	0xc17d9cd1	-15.850785
57	0xc17d9e7e	-15.851194
58	0xc17d9c74	-15.850697
59	0xc17d9aaf	-15.850265
60	0xc17d7b30	-15.842575
61	0xc17d9eba	-15.851252
62	0xc17d9da5	-15.850987
63	0xc17d9efe	-15.851316
64	0xc17d9e26	-15.85111
65	0xc17d9dbf	-15.851012
66	0xc17d9dff	-15.851073
67	0xc17d84de	-15.844938
68	0xc17d9cd0	-15.850784
69	0xc17d9e39	-15.851129
70	0xc17d9e84	-15.8512
71	0xc17d5f7f	-15.835814
72	0xc17d9ed7	-15.851279
73	0xc17d6adc	-15.838589
74	0xc17d4a3a	-15.830622
75	0xc17d9ecd	-15.85127
76	0xc17d9e9f	-15.851226
77	0xc17c998f	-15.78749
78	0xc17d7f55	-15.843587
79	0xc17d7889	-15.841928
80	0xc17d9ee1	-15.851289
81	0xc17d9ece	-15.851271
82	0xc171bfe0	-15.1093445
83	0xc17d9a17	-15.85012
84	0xc17d92cb	-15.848338
85	0xc17d9e0e	-15.851088
86	0xc17d9d48	-15.850899
87	0xc17d9cd0	-15.850784
88	0xc17d92d5	-15.848348
89	0xc16ed5e7	-14.927222
90	0xc177cead	-15.487958
91	0xc17d9eb5	-15.851247
92	0xc17d953e	-15.848936
93	0xc17d9ef2	-15.851305
94	0xc1497dcc	-12.593212
95	0xc17d9646	-15.849188
96	0xc17d9c5f	-15.850677
97	0xc17d9616	-15.849142
98	0xc178f8ec	-15.560772
99	0xc17d9cee	-15.850813
100	0xc17d9e20	-15.851105
101	0xc1727ef9	-15.155999
102	0xc17d8cde	-15.846891
103	0xc17d82f2	-15.844469
104	0xc17d9cb6	-15.8507595
105	0xc17d9dfc	-15.85107
106	0xc17d9c8d	-15.85072
107	0xc17d9a4c	-15.85017
108	0xc17ce7e8	-15.806618
109	0xc17d5664	-15.833591
110	0xc17d9ece	-15.851271
111	0xc17d9de1	-15.851045
112	0xc17d9ea3	-15.85123
113	0xc17d9c71	-15.850694
114	0xc17d9d97	-15.850974
115	0xc0e3f43a	-7.123563
116	0xc17d9c8c	-15.850719
117	0xc17c5a70	-15.772079
118	0xc17d9d4e	-15.850904
119	0xc17d9e9d	-15.851224
120	0xc17d95b2	-15.849047
121	0xc17d95bc	-15.849056
122	0xc17d6792	-15.837786
123	0xc17d9e9b	-15.851222
124	0xc17d9eff	-15.851317
125	0xc17d9dac	-15.850994
126	0xc17d9b4c	-15.850414
127	0xc17d9ecf	-15.851272
128	0xc17d9edf	-15.851287
129	0xc17d9b09	-15.85035
130	0xc17d9cb4	-15.850758
131	0xc17d854d	-15.845044
132	0xc17d8af3	-15.846423
133	0xc17d9e80	-15.851196
134	0xc17d9dde	-15.851042
135	0xc17d9ef4	-15.851307
136	0xc17d93f2	-15.848619
137	0xc17d9c81	-15.850709
138	0xc17d9d70	-15.850937
139	0xc17d9e2c	-15.851116
140	0xc17d9aaf	-15.850265
141	0xc17d9e87	-15.851203
142	0xc17d9daf	-15.850997
143	0xc17d9d8d	-15.850965
144	0xc17d81b9	-15.844171
145	0xc17d959c	-15.849026
146	0xc17b7926	-15.717077
147	0xc17d9af8	-15.850334
148	0xc17d9de0	-15.851044
149	0xc17d9ec8	-15.851265
150	0xc17d9e10	-15.8510895
151	0xc17d9ce6	-15.850805
152	0xc17d9e04	-15.851078
153	0xc17d9e34	-15.851124
154	0xc17d9ed2	-15.8512745
155	0xc17d8c36	-15.846731
156	0xc17d8610	-15.84523
157	0xc1788b23	-15.533969
158	0xc17d8d10	-15.846939
159	0xc17d6fb7	-15.839774
160	0xc17d9d4f	-15.850905
161	0xc17d9d54	-15.85091
162	0xc17d9e93	-15.851214
163	0xc17d1e06	-15.81983
164	0xc17d54d2	-15.833208
165	0xc17cfa74	-15.811146
166	0xc17d8a2e	-15.846235
167	0xc17d9ed6	-15.851278
168	0xc17c1ae0	-15.756561
169	0xc17d64a0	-15.837067
170	0xc17d821d	-15.844266
171	0xc17d9b6c	-15.850445
172	0xc17d644e	-15.836988
173	0xc17d9d83	-15.850955
174	0xc1799b7d	-15.600461
175	0xc17d161e	-15.8179
176	0xc173189c	-15.193508
177	0xc17d8c5d	-15.846768
178	0xc17d9e17	-15.851096
179	0xc17d9eff	-15.851317
180	0xc17d9e0a	-15.851084
181	0xc17d8ac8	-15.846382
182	0xc17d8001	-15.843751
183	0xc17d8bed	-15.846662
184	0xc17d9e7e	-15.851194
185	0xc17d9fe6	-15.851538
186	0xc17d963e	-15.84918
187	0xc17d9e2f	-15.851119
188	0xc17d9d27	-15.850867
189	0xc17c3dc5	-15.76508
190	0xc17d9d2f	-15.850875
191	0xc17d8c61	-15.846772
192	0xc17d85fd	-15.845212
193	0xc17d9eb6	-15.851248
194	0xc17d8a35	-15.846242
195	0xc17d7890	-15.841934
196	0xc17d3059	-15.824304
197	0xc17d9d49	-15.8509
198	0xc17d4413	-15.82912
199	0xc17d9b11	-15.850358
200	0xc17d9ed7	-15.851279
201	0xc17d9dc0	-15.851013
202	0xc17ce3a8	-15.80558
203	0xc17d9ffb	-15.851558
204	0xc17d9e2d	-15.851117
205	0xc17d8d16	-15.846945
206	0xc17d6791	-15.837785
207	0xc17d9e38	-15.851128
208	0xc17d8014	-15.843769
209	0xc17d944b	-15.848704
210	0xc17d93a9	-15.84855
211	0xc17d9f00	-15.851318
212	0xc17d9373	-15.848498
213	0xc17d8316	-15.844503
214	0xc17d9cb2	-15.850756
215	0xc17d967d	-15.84924
216	0xc17d9dba	-15.851007
217	0xc17d9e85	-15.851201
218	0xc17d9aa1	-15.850251
219	0xc17d9e01	-15.851075
220	0xc17d9ed7	-15.851279
221	0xc17d9a11	-15.850114
222	0xc17d9ecc	-15.851269
223	0xc17d9dd1	-15.851029
224	0xc17d9ecd	-15.85127
225	0xc17a4f92	-15.644426
226	0xc17d9e2e	-15.851118
227	0xc17d9a9e	-15.850248
228	0xc17d8abc	-15.846371
229	0xc17d9e97	-15.851218
230	0xc17a3fcf	-15.640578
231	0xc17d56e7	-15.833716
232	0xc17d5656	-15.833578
233	0xc17d9fe7	-15.851539
234	0xc17d9da9	-15.850991
235	0xc17d5f8a	-15.835825
236	0xc17c9751	-15.7869425
237	0xc17d9d98	-15.850975
238	0xc17d961b	-15.849147
239	0xc17d9f88	-15.851448
240	0xc17ca73a	-15.790827
241	0xc17d9db3	-15.851001
242	0xc17d9c8f	-15.850722
243	0xc17d9ec5	-15.851262
244	0xc17d9cd8	-15.850792
245	0xc17d41f7	-15.828605
246	0xc17d9ecd	-15.85127
247	0xc17d9ec3	-15.85126
248	0xc17d4c0e	-15.831068
249	0xc17d9efb	-15.851314
250	0xc17b65fa	-15.712397
251	0xc17d93ba	-15.848566
252	0xc17d9c8b	-15.8507185
253	0xc17d9eb4	-15.851246
254	0xc17d7ff2	-15.843737
255	0xc17d84fa	-15.844965

2.weight f4 [256, 512]
0	0x3ac33816	0.0014894034
1	0x3c26fa2a	0.01019148
2	0x3c6bf787	0.014402277
3	0xbc81039b	-0.01574879
4	0x3c226192	0.009910958
5	0x3d8dff29	0.069334336
6	0x3c9406a6	0.018069576
7	0xbd0ba458	-0.034092277
8	0x3ce4757e	0.027888056
9	0x3c13bb4f	0.009016826
10	0xbd3a59b1	-0.045495693
11	0x3abebd16	0.0014552202
12	0xbcc95fcb	-0.02458181
13	0xbc16a013	-0.009193438
14	0x3d752951	0.059853856
15	0xbc70ede3	-0.014705154
16	0xbb22fe75	-0.0024870906
17	0x3d4c2246	0.049837373
18	0xbc8ebb05	-0.017423162
19	0x3d9c76ae	0.07639824
20	0x3c10c339	0.008835607
21	0x3cbc716d	0.023003304
22	0x3cd11c3e	0.025526162
23	0x3d26f079	0.040756676
24	0x3d4d7218	0.050157636
25	0xbc269fef	-0.010169967
26	0x3d99903a	0.07498212
27	0x3d36ecca	0.044659413
28	0x3cd49be5	0.025953243
29	0x3d8354d2	0.064126626
30	0x3d937a3a	0.07201047
31	0x3cb0606e	0.021530356
32	0xbca5b13f	-0.02022612
33	0x3cf9e5d7	0.030505104
34	0xbd3b2755	-0.045691807
35	0x3c927464	0.017877765
36	0xbb65a6e8	-0.003504211
37	0x3db8cfcf	0.09024011
38	0x3d10f646	0.035391115
39	0x3c8ba5c1	0.017046811
40	0x3c57dcbf	0.013175189
41	0x3e18ebd8	0.14933717
42	0x3da7a454	0.0818564
43	0xbc13563a	-0.008992726
44	0x3c8926d2	0.016742144
45	0xbd09b1ab	-0.033616703
46	0xb9fe69a0	-0.00048525352
47	0xbc926c6b	-0.017873963
48	0xbc77f17f	-0.015133261
49	0xbc44603b	-0.011985834
50	0x3b6109e9	0.0034338182
51	0x3cfd43a0	0.030916035
52	0xbcb5154f	-0.022104887
53	0x3ce844b1	0.028353067
54	0xbcb5eb8b	-0.022207042
55	0xbd2a0e44	-0.04151751
56	0xbc5c53fa	-0.013447756
57	0xba336799	-0.00068437454
58	0x3d523ef6	0.051329575
59	0xbd00cf30	-0.03144759
60	0xbcc45d82	-0.02397037
61	0x3d4270ad	0.047470737
62	0x3cb8f410	0.022577316
63	0x3d5a6955	0.05332311
64	0x3be152e6	0.0068763373
65	0x3d10452d	0.03522222
66	0x3c50650e	0.012719406
67	0x3c8ccc61	0.0171873
68	0x3d912ed7	0.07089012
69	0x3d2308f7	0.03980347
70	0xbb9c2463	-0.00476508
71	0xbd250bab	-0.04029433
72	0x3dd68de5	0.10476283
73	0x3d31857d	0.043340195
74	0x35aaef22	1.2735584e-06
75	0x3cdbd997	0.026837153
76	0x3d72bda2	0.05926288
77	0xbcd34a8e	-0.025792386
78	0x3cbd7d48	0.023131028
79	0x3d71dde3	0.0590495
80	0x3cfa3275	0.030541638
81	0xbc8b23f9	-0.016984927
82	0xbd4f4126	-0.05059924
83	0x3d6be76c	0.057593748
84	0xbc90c34e	-0.017671254
85	0xbd916d08	-0.07100874
86	0x3a16ef45	0.00057577
87	0x3d459078	0.04823348
88	0x3d3984a0	0.045292497
89	0x3c4d559d	0.012532619
90	0x3d13559e	0.035970323
91	0x3c2402fb	0.010010476
92	0xbcd6480e	-0.026157405
93	0xbd4cd524	-0.050007954
94	0x3dc17f99	0.094481654
95	0xbc416a61	-0.011805148
96	0x3ced49f4	0.028965928
97	0x3cd03a38	0.025418386
98	0x3c04d490	0.0081073195
99	0x3d449fb1	0.048003856
100	0xbc33b091	-0.01096739
101	0xbd5a1bcd	-0.05324917
102	0x3ca719c6	0.020398032
103	0x3d89d064	0.067292005
104	0xbd21400b	-0.039367717
105	0x3cfa4959	0.030552553
106	0xbc0994e5	-0.008397316
107	0x3ce2fde8	0.027708963
108	0x3da48023	0.08032253
109	0x3d4171ca	0.04722766
110	0xbd12182c	-0.035667583
111	0x3cae8049	0.021301406
112	0x3d977c9a	0.07396813
113	0x3da37eef	0.07983195
114	0x3ceee605	0.029162416
115	0x3d36d8df	0.04464042
116	0x3d88b3c1	0.0667491
117	0x3c857f60	0.016296089
118	0x3cba72cb	0.022759816
119	0x3db86e4c	0.090054125
120	0xbc24c473	-0.010056603
121	0xbd7cda6f	-0.061731752
122	0x3ca19151	0.019722613
123	0x3d845990	0.06462395
124	0xbc9d981e	-0.019237574
125	0x3cd7d9d1	0.02634898
126	0x3d823db2	0.06359424
127	0x3ca071b3	0.019585466
128	0x3c6eec82	0.014582755
129	0x3c831467	0.01600094
130	0x3b56c2c9	0.003276991
131	0x3b90c47d	0.0044179545
132	0x3d5cd97b	0.053918343
133	0xbd2ff2e1	-0.042956237
134	0x3c7a8c64	0.015292261
135	0x3cf021bc	0.02931296
136	0x3cd02edd	0.025412971
137	0xbc322e85	-0.010875349
138	0x3c06c29a	0.008225108
139	0x3cbb5ad2	0.022870455
140	0x3c960594	0.018313207
141	0x3d79872f	0.060919937
142	0xbc3df390	-0.011593714
143	0xbd2c27a6	-0.04203
144	0x3ca352b1	0.019936891
145	0x3da17c71	0.078850634
146	0x3d17ff37	0.037108626
147	0x3d64c44d	0.05585127
148	0x3d1598e0	0.036522746
149	0xbd2b5a06	-0.0418339
150	0x3cf5cfda	0.030006338
151	0x3bc47b4f	0.005996145
152	0xbc6de478	-0.014519803
153	0x3cca7d43	0.024717933
154	0xbc8d9bc1	-0.017286183
155	0xbcecec78	-0.02892135
156	0x3bd84e36	0.0066011203
157	0x3d845196	0.06460874
158	0x3d264ad2	0.040598698
159	0x3d492029	0.049102936
160	0x3d552358	0.05203566
161	0x3d50e80d	0.05100255
162	0x3df1a142	0.117983356
163	0x3c965d81	0.018355133
164	0x3c0b21b6	0.008491924
165	0x3cea1444	0.028574117
166	0xbd97aff6	-0.07406609
167	0xbd7162d0	-0.058932126
168	0xbcc065ad	-0.023485983
169	0x3dd337dc	0.10313389
170	0x3d14af78	0.036300153
171	0x3dab3ba7	0.08360987
172	0xbc45e110	-0.012077585
173	0x3d2b68ee	0.041848116
174	0x3d8a6ddb	0.067592345
175	0x3d2535ae	0.040334396
176	0xbc895325	-0.01676328
177	0x3d962e2c	0.07333025
178	0x3d1cd103	0.038285267
179	0x3d89b7e7	0.0672453
180	0x3c7f6da4	0.015590105
181	0xbbd5c64d	-0.0065238834
182	0x3d4ba09c	0.049713716
183	0x3cdf6dbe	0.027274009
184	0x3c534ae9	0.012896278
185	0x3d39197d	0.045190323
186	0xbd0f82c6	-0.035036825
187	0x3d6085fb	0.054815274
188	0x3d2407dd	0.04004656
189	0x3cb4d340	0.022073388
190	0x3ce9d9ee	0.0285463
191	0x3af38756	0.0018579762
192	0xbd1a6bc1	-0.03770042
193	0xbcc72429	-0.024309235
194	0x3c79a18f	0.0152362725
195	0x3cc19118	0.023628756
196	0x3d183ca2	0.0371672
197	0xbcfc2ff5	-0.030784586
198	0xbd86b201	-0.0657692
199	0xbca76e41	-0.020438315
200	0x3d0ef3db	0.034900527
201	0x3d97a415	0.07404343
202	0x3a12844d	0.00055891724
203	0x3b0c5638	0.0021413695
204	0xba873397	-0.0010315058
205	0x3d0f55a4	0.034993783
206	0x3d783af8	0.060603112
207	0x3d80fa0c	0.06297693
208	0xbd056e93	-0.032576155
209	0xbd42ad67	-0.04752865
210	0x3c8ae1a5	0.016953299
211	0xbd80ee0c	-0.06295404
212	0x3d23d484	0.039997593
213	0x3d28cc42	0.04121042
214	0x3d28e409	0.041233096
215	0x3d55c8c3	0.052193414
216	0x3d18c9a2	0.037301667
217	0xbcde92e9	-0.027169662
218	0x3d67fab0	0.05663556
219	0x3d8ebcf0	0.06969631
220	0x3d1eb27d	0.03874444
221	0xbd7cccf9	-0.061718915
222	0x3cd77643	0.026301509
223	0x3d810d7e	0.063014016
224	0xbb7d92fa	-0.0038692341
225	0xbc865303	-0.016397005
226	0x3c40e2eb	0.011772851
227	0xbcacbc9e	-0.021086033
228	0x3d736dce	0.05943089
229	0x3d0176c0	0.03160739
230	0xbbc92bba	-0.006139246
231	0x3d3e1ba4	0.04641308
232	0xbcfdd846	-0.030986916
233	0xbd44fdf0	-0.048093736
234	0x3c3d85af	0.011567517
235	0x3d760029	0.060058746
236	0xbd00cdee	-0.03144639
237	0xbcc3efd5	-0.023918072
238	0xbcad3a52	-0.021145973
239	0xbcaf54ff	-0.021402834
240	0xbc35f315	-0.011105319
241	0x3b76f437	0.0037682184
242	0xbb530f1e	-0.0032205055
243	0x3d88ebc5	0.066855945
244	0x3cfe673b	0.031055083
245	0xbd53ac0e	-0.051677756
246	0x3cafef92	0.02147654
247	0xbd27ff1b	-0.041014772
248	0xbd1d88f5	-0.03846069
249	0x3dae5e38	0.085140646
250	0x3d784854	0.060615852
251	0xbc6d5eb7	-0.014487914
252	0x3d28d74c	0.041220948
253	0x3d5c6466	0.053806685
254	0x3cf07f9d	0.029357726
255	0xbd559b47	-0.052150037

2.bias f4 [256]
0	0xbd216d92	-0.039411135
1	0xbc3972ed	-0.011318904
2	0xbce0b09f	-0.02742797
3	0x3c2b7362	0.010464521
4	0xbc7252b4	-0.014790226
5	0xbcedf8c6	-0.029049288
6	0xbd295e7a	-0.041349865
7	0x3c7d72c3	0.015469256
8	0x3c11bdde	0.0088953655
9	0xbd31a61d	-0.04337131
10	0xbcb2ca22	-0.0218249
11	0xbd98dd88	-0.07464129
12	0xbd8f6c35	-0.07003061
13	0xbd152961	-0.036416415
14	0xbcd8e6cb	-0.026477238
15	0xbd32000e	-0.043457083
16	0xbd925ccb	-0.07146605
17	0xbd6f7e02	-0.05846978
18	0xbc350a0b	-0.011049758
19	0xbda9a416	-0.0828325
20	0xbc51cb85	-0.0128048705
21	0xbc40499c	-0.0117363
22	0x3a98be22	0.0011653344
23	0xbd36bbc0	-0.044612646
24	0xbc55ca2c	-0.01304869
25	0xbd8254e1	-0.063638456
26	0xbd3841d3	-0.04498465
27	0xbb03bbc5	-0.0020100933
28	0xbc78f8fd	-0.015196082
29	0x3c2c85bd	0.010529933
30	0xbd690029	-0.05688492
31	0xbd622c6f	-0.055218156
32	0xbc8b7c97	-0.017027183
33	0xbd345d03	-0.044034015
34	0xbd4c40c8	-0.049866468
35	0xbd922482	-0.071358696
36	0x3ab9c1e9	0.001417217
37	0xbc265742	-0.01015264
38	0x3a492f48	0.0007674587
39	0xbd92bdde	-0.071651205
40	0xbc979bf3	-0.01850698
41	0xbd077d20	-0.033078313
42	0xbb04cdde	-0.0020264308
43	0xbad5a830	-0.0016300734
44	0xbc30917c	-0.010776874
45	0xbd07d66d	-0.033163477
46	0xbc5dcbf8	-0.0135373995
47	0xbd1cea9b	-0.038309675
48	0x3c4a7059	0.012355887
49	0xbd3ffa9c	-0.04686986
50	0xba57ea9a	-0.00082365575
51	0xbd2f242c	-0.042759106
52	0xbd2435f6	-0.040090524
53	0xbb3ff348	-0.0029289294
54	0x3c959e2f	0.018263904
55	0xbd2f3af2	-0.042780824
56	0xbd5a6055	-0.053314526
57	0x3c48d7a0	0.01225844
58	0x3a9609ea	0.0011447046
59	0xbb51f42a	-0.0032036402
60	0xbd377461	-0.044788722
61	0xbd1da1ee	-0.038484506
62	0xbc9d2e65	-0.019187162
63	0x3c08690a	0.0083258245
64	0x3c2df5b1	0.010617659
65	0xbdcb5966	-0.09929161
66	0xbda83ee3	-0.0821512
67	0x3b63508b	0.0034685459
68	0xbbb5e5cf	-0.005551077
69	0xbd965307	-0.07340055
70	0x3d63f726	0.05565562
71	0xbd6c6ed9	-0.0577229
72	0xbc544305	-0.012955432
73	0xbd85ed33	-0.06539383
74	0xbd193676	-0.037405454
75	0xbc8e51b3	-0.017372942
76	0xbc4a80a1	-0.012359769
77	0xbcacaf80	-0.021079779
78	0xbcfa71fd	-0.030571932
79	0x3c22a401	0.009926797
80	0xbd882af2	-0.06648816
81	0xbbb9927f	-0.0056632156
82	0xbd4c4021	-0.049865846
83	0xbd8f91ce	-0.07010232
84	0xbce3a23b	-0.027787318
85	0xbda8dcde	-0.08245252
86	0xbd0668d1	-0.032814804
87	0xbcb0553b	-0.021525016
88	0xbd283d48	-0.041074067
89	0x3c3dcfae	0.011585159
90	0xbd7f386c	-0.062309667
91	0x3bc6126a	0.0060446756
92	0xbcf22784	-0.029559858
93	0xbaae6671	-0.0013305676
94	0xbd048006	-0.032348655
95	0xbd5f3570	-0.05449432
96	0x3b9cc539	0.004784253
97	0xbd8858e6	-0.06657581
98	0x3cb1062b	0.021609386
99	0xbd80cc35	-0.062889494
100	0x3caa4393	0.020784175
101	0x3b5b65f0	0.0033477508
102	0xbc8597d8	-0.016307756
103	0xbd478a85	-0.048716087
104	0xbda2f164	-0.07956198
105	0xbd8a813a	-0.06762929
106	0xbd5b6fbe	-0.053573363
107	0xbd9b690a	-0.07588394
108	0x3886f156	6.43457e-05
109	0xbd823579	-0.06357855
110	0xbd275d9e	-0.040860765
111	0x3c9e07b8	0.01929079
112	0xbd6d380c	-0.05791478
113	0xbd0cc063	-0.03436316
114	0xbc10ca23	-0.008837256
115	0xbbaeeb9d	-0.005338146
116	0xbd270eff	-0.040785786
117	0xbc4d66ee	-0.012536747
118	0xbd2b8607	-0.041875865
119	0x3810a98e	3.4490185e-05
120	0xbd880427	-0.06641417
121	0x3b26aefb	0.0025433886
122	0x3cb7769d	0.022395426
123	0xbcddef93	-0.027091777
124	0xbd84ddcd	-0.06487618
125	0xbd983178	-0.074313104
126	0xbc9cd102	-0.019142631
127	0xbc14dc12	-0.009085672
128	0xbd4ff32b	-0.050769012
129	0xbcb915da	-0.022593427
130	0xbc964282	-0.01834226
131	0xbd07f282	-0.033190258
132	0x3be3bc26	0.0069499193
133	0xbd44b5cf	-0.04802495
134	0xbd317b73	-0.04333062
135	0x3c5ce2b6	0.0134817865
136	0xbc1ad3e1	-0.00944993
137	0xbcc64faa	-0.024207909
138	0xbd28c714	-0.04120548
139	0xbcb6f069	-0.022331433
140	0xbd636676	-0.055517636
141	0xbd9ad1f7	-0.07559579
142	0xbced8a44	-0.028996594
143	0xbd3320a5	-0.043732304
144	0x3ca25b7b	0.019819012
145	0xba1ad26f	-0.0005905991
146	0xbd9482c6	-0.072515056
147	0xbd1a0bc4	-0.037608877
148	0xbc55c4dc	-0.013047423
149	0xbc28f1f9	-0.010311597
150	0xbd099493	-0.033588957
151	0xbd3d5b9d	-0.046229947
152	0x3ce2b675	0.027674893
153	0xbd1cae90	-0.038252413
154	0xbd8e5547	-0.06949859
155	0xbd916214	-0.07098785
156	0x3d26b91d	0.04070388
157	0x3b99ec3f	0.004697352
158	0xbd5d8b79	-0.05408809
159	0x3c3c717a	0.011501664
160	0xbd19bbf4	-0.03753276
161	0xbd025050	-0.031814873
162	0xbbe73d45	-0.0070568644
163	0xbc8e82e5	-0.0173964
164	0x3ca35828	0.019939497
165	0xbc61169d	-0.013738302
166	0xbd0c059a	-0.03418503
167	0xbd21219f	-0.039338704
168	0xbd42a9d9	-0.04752526
169	0x3c2e946c	0.010655504
170	0xbc849068	-0.01618214
171	0xbd0c3819	-0.034233186
172	0x3c912a6a	0.01772042
173	0xbc939987	-0.018017543
174	0x3c992086	0.018692266
175	0xbc156fcd	-0.009120894
176	0xbd7e6397	-0.062106695
177	0xb9bef380	-0.00036421046
178	0xbd855030	-0.06509435
179	0xbd4a82f2	-0.049441285
180	0x3c312287	0.010811455
181	0xbda94e04	-0.082668334
182	0x3a390137	0.0007057371
183	0xbd22b507	-0.039723422
184	0xba739f5c	-0.0009293461
185	0xbd932c38	-0.071861684
186	0xbd45fe98	-0.048338503
187	0xbd1fd6c9	-0.039023194
188	0xbda6a641	-0.08137179
189	0xbc809591	-0.015696319
190	0xbcf5dcfc	-0.0300126
191	0xbc522248	-0.012825556
192	0xbc292351	-0.0103233615
193	0x3bebb22e	0.0071928715
194	0xbd529fd0	-0.05142194
195	0xbc14951e	-0.009068755
196	0xbc3feab1	-0.01171367
197	0x3c8a31f9	0.016869532
198	0x3c1f5016	0.009723684
199	0xbc20e41d	-0.009820011
200	0x3cc82d20	0.02443558
201	0x3b8025cd	0.003910756
202	0xbd01a047	-0.031646993
203	0x3c413ba3	0.011794004
204	0x3c08b0bb	0.008342917
205	0xbda40523	-0.08008792
206	0xbd37e7a2	-0.044898637
207	0x3af63bc1	0.0018786119
208	0xbb98cc64	-0.004663037
209	0x3c48cf5c	0.01225647
210	0xbd2abbd1	-0.041683022
211	0x3acc08e2	0.0015566612
212	0xba0ad525	-0.0005296043
213	0xba19ffc1	-0.0005874597
214	0xbce8ccac	-0.028417908
215	0xbd96ea93	-0.0736896
216	0xbd92f2df	-0.0717523
217	0xbd018b19	-0.031626794
218	0x3caa2147	0.020767821
219	0xbbcb561c	-0.0062053334
220	0xbc930ce5	-0.017950485
221	0xbc3c71c1	-0.01150173
222	0x3c6c21b9	0.014412337
223	0xbdaacef0	-0.083402514
224	0xbd14ed3c	-0.036359057
225	0x3d251050	0.04029876
226	0xbcd13fd6	-0.025543135
227	0xbc98ff35	-0.01867638
228	0xbd2afd63	-0.041745555
229	0xbd9ea522	-0.0774634
230	0xbcd26d03	-0.025686746
231	0xbda065cf	-0.078319184
232	0xbc73f06c	-0.014888864
233	0xbd2ddcec	-0.042447016
234	0xbc8f3efd	-0.01748609
235	0xbd68a67a	-0.05679939
236	0xbc213caa	-0.009841124
237	0xbd990835	-0.074722685
238	0xbdaeb916	-0.08531396
239	0xbd418e16	-0.047254644
240	0xbc0dc673	-0.008653271
241	0xbd8fd38a	-0.0702277
242	0xbd4bc1e7	-0.049745467
243	0x3bb253ae	0.0054421043
244	0x3c94a3aa	0.018144447
245	0xbd2f207d	-0.042755593
246	0xbd39b430	-0.045337856
247	0xbcb7698f	-0.022389201
248	0xb7c86282	-2.388773e-05
249	0xb9a2b8a6	-0.00031036622
250	0x3c8ce624	0.017199583
251	0xbd08ab9a	-0.033366777
252	0x3b9c6660	0.0047729462
253	0xbd13c8cd	-0.03608017
254	0xbd8043a3	-0.06262901
255	0xbd3b2111	-0.04568583

5.weight f4 [128, 256]
0	0x3c410c41	0.011782707
1	0x3d165738	0.036704272
2	0xbd0aaaa8	-0.033854157
3	0xbca5c5e8	-0.02023597
4	0xbd76c8da	-0.06025014
5	0x3bc0ccd2	0.0058837915
6	0x3c7d85d7	0.015473804
7	0x3d43a43a	0.04776404
8	0xbd647fed	-0.055786062
9	0xbd81f1ea	-0.063449696
10	0xbbd292bf	-0.006426185
11	0x3c17a051	0.009254531
12	0x3d274d1f	0.040845033
13	0x3cb90fd0	0.022590548
14	0xbab3501b	-0.001368049
15	0x3d8396e6	0.06425266
16	0xbd070d59	-0.032971714
17	0xbc0abeed	-0.008468372
18	0x3cdabd16	0.026701491
19	0xbd0daeba	-0.03459046
20	0x3d0793ad	0.03309982
21	0x3d6b8acd	0.057505418
22	0x391253ad	0.00013954817
23	0x3bfeeeeb	0.007779946
24	0x3d1e2064	0.03860511
25	0x3c82f3eb	0.01598545
26	0xbcd43a24	-0.02590663
27	0x3daa8bd7	0.083274536
28	0xbcfa58c5	-0.030559907
29	0x3d5faadb	0.0546063
30	0x3c23ae9b	0.00999036
31	0x3cde47fc	0.027133934
32	0x3d8b2105	0.06793407
33	0xbd7663e6	-0.060153864
34	0xbd2a52a8	-0.041582733
35	0xbd1270cf	-0.035752114
36	0xbd973325	-0.07382802
37	0xbc623cd5	-0.013808449
38	0xbc9bd14f	-0.019020705
39	0x3d864581	0.065562256
40	0xbd56d0b0	-0.052445114
41	0x3d06ea93	0.03293855
42	0x3b36b919	0.0027881323
43	0x3bfb57ce	0.0076703792
44	0x3cafdeaf	0.021468488
45	0x3ba6475a	0.0050744237
46	0xbd00e02a	-0.03146378
47	0xbab7b334	-0.0014015199
48	0xbceee5c4	-0.029162295
49	0xbd88a68e	-0.06672393
50	0xbe8ac1a5	-0.27100864
51	0xbcdb38ff	-0.026760576
52	0xb9680224	-0.00022126042
53	0x3ca04828	0.019565657
54	0xbd5b9b84	-0.053615108
55	0xbe799f78	-0.24377239
56	0x3cef6b18	0.029225871
57	0xbc842fd2	-0.016136084
58	0xbd559dca	-0.052152433
59	0x3d7e2d75	0.06205507
60	0xbc95b178	-0.0182731
61	0x3bc711cb	0.006075119
62	0xbc1b3e2a	-0.00947527
63	0xbc8d98f7	-0.017284853
64	0x3d17f306	0.037097
65	0xbd1808f8	-0.03711793
66	0x3c62774a	0.013822386
67	0x3d8297f5	0.0637664
68	0xbb1b9180	-0.0023737848
69	0x3c9dc2e9	0.01925798
70	0xba7cd46a	-0.0009644689
71	0x3c2e0e50	0.01062353
72	0xbd4cb4c8	-0.049977094
73	0x3d642549	0.05569962
74	0xbd8ea806	-0.06965642
75	0xbdac72d0	-0.08420336
76	0xbcda2b77	-0.026632054
77	0xbd51d1c9	-0.051225457
78	0xbca7cdd7	-0.020483894
79	0x3afb8f10	0.0019192416
80	0xbd125cf7	-0.03573319
81	0xbc289f16	-0.010291835
82	0x3ca65d37	0.02030812
83	0xbb7043b8	-0.0036661457
84	0xbdebc41d	-0.11512015
85	0xbd5bbe6b	-0.053648394
86	0xbcb6ae22	-0.02229983
87	0x3caa6f02	0.020804886
88	0x3c9bcc42	0.019018296
89	0xbc87820f	-0.016541509
90	0x3ce4a5fa	0.027911175
91	0xbd05441a	-0.03253565
92	0x3da22051	0.0791632
93	0xbd34069c	-0.043951616
94	0xbd9a902b	-0.07547029
95	0x3d2cd5be	0.042196028
96	0xbc82e4b9	-0.015978204
97	0xbd1cb379	-0.038257096
98	0xbced7911	-0.028988393
99	0x3d729434	0.05922337
100	0xbc8a4725	-0.016879627
101	0xbd4d9b0d	-0.050196696
102	0xbcde75d7	-0.0271558
103	0x3c7153af	0.014729424
104	0x3c6302f8	0.013855688
105	0xbc922b2f	-0.017842857
106	0x3d22e50a	0.03976921
107	0x3d208cf3	0.03919692
108	0xbd00188a	-0.031273402
109	0xb95c83f5	-0.00021029993
110	0x3d473085	0.048630256
111	0xbc9532a7	-0.01821263
112	0x3d393d03	0.0452242
113	0x3cd3405d	0.025787527
114	0xbd949390	-0.07254708
115	0x3bfc072b	0.007691284
116	0x3c34a578	0.011025779
117	0xbd5ab495	-0.053394873
118	0xbd1b3944	-0.03789641
119	0xbd39f9c2	-0.045404203
120	0xbc34c650	-0.0110336095
121	0x3cb0cdef	0.021582572
122	0xb8c7b546	-9.522824e-05
123	0xbcdb1717	-0.026744409
124	0x3ce19a3e	0.027539369
125	0x3d8092c5	0.06277994
126	0x3d3147b4	0.043281272
127	0xbbd15104	-0.0063878316
128	0xbd619d0e	-0.05508142
129	0xbd5cbe12	-0.053892203
130	0x3cc97be3	0.024595207
131	0x3d17e365	0.037082095
132	0xbc2141d6	-0.009842357
133	0x3d1133a1	0.035449628
134	0x3c447472	0.011990653
135	0x3e034125	0.1281782
136	0x3ce06989	0.027394073
137	0xbb871c24	-0.0041232277
138	0xbd8b048f	-0.06787979
139	0xbd5fb3cc	-0.054614827
140	0x3d608906	0.054818176
141	0xbc81521d	-0.015786225
142	0x3da905c4	0.08253053
143	0xbd68eb76	-0.056865178
144	0xbd1fe75e	-0.03903901
145	0xbcee39f2	-0.029080365
146	0xbd92b90b	-0.071642004
147	0xbce1d400	-0.02756691
148	0x3c9a4223	0.018830365
149	0x3d2ae8c0	0.041725874
150	0xbda1fe55	-0.07909838
151	0x3d9c51bc	0.07632777
152	0x3c22d6af	0.00993888
153	0x3d3457a8	0.044028908
154	0xbccd2daa	-0.025046188
155	0x3d0423a4	0.032260552
156	0xbdab6b9d	-0.08370135
157	0xbc869c33	-0.016431903
158	0xbd91092d	-0.07081828
159	0xbda5eb48	-0.08101517
160	0xbd7fd654	-0.06246026
161	0xbc543afc	-0.012953516
162	0x3c813bbc	0.015775554
163	0x3c8adeec	0.016952
164	0xbd35ba2c	-0.044367
165	0xbca2a61f	-0.019854603
166	0xbc6689ae	-0.014070911
167	0x3c628444	0.01382548
168	0x3a28daef	0.0006441315
169	0x3d911233	0.07083549
170	0xbba53197	-0.005041312
171	0x3d4ba3a1	0.049716596
172	0xbc904f60	-0.017615974
173	0xbd6251e4	-0.05525388
174	0x3d1d9bf4	0.038478807
175	0xbc448d5a	-0.011996591
176	0xbd656ded	-0.056013037
177	0xbc98a465	-0.018633077
178	0x3bab7945	0.0052329623
179	0xbd5bf1e0	-0.053697467
180	0x3d81ae1d	0.063320376
181	0xbd966af9	-0.07344622
182	0x3c1cad8a	0.009562859
183	0xbcae43a6	-0.021272492
184	0x3cb364a9	0.021898584
185	0xbd3bd1d8	-0.04585442
186	0x3d2d76ed	0.042349745
187	0xbbc6b75e	-0.0060643395
188	0xbd67ba51	-0.05657417
189	0xbd818a17	-0.06325167
190	0x3bf32f13	0.007421383
191	0x3d7e72c3	0.062121164
192	0xbd0a0646	-0.03369739
193	0xbc9d2fd0	-0.019187838
194	0xbd3b1a9e	-0.04567968
195	0xbe5c3cf4	-0.21507627
196	0x3b223518	0.0024750885
197	0x3d263e88	0.04058698
198	0x3d2fb6c2	0.0428989
199	0x3ca9efc6	0.020744216
200	0x3be6e0f2	0.0070458585
201	0xbd0dad20	-0.034588933
202	0xbd89bb54	-0.06725183
203	0x3d45236b	0.04812948
204	0x3b8a8b7d	0.004228054
205	0x3c4b230d	0.0123984935
206	0xbc82ead2	-0.015981112
207	0xbd0cac2e	-0.03434389
208	0xbc9af192	-0.018914018
209	0xbc812a62	-0.01576728
210	0xbc39c2f8	-0.011337988
211	0x3d722059	0.05911288
212	0x3d59e5a1	0.053197507
213	0xbc14931a	-0.009068275
214	0x3c8e6f44	0.01738704
215	0x3dcc1d3d	0.09966514
216	0x3c41c7a2	0.011827381
217	0xbd4deea9	-0.050276432
218	0xbd8965d7	-0.067088775
219	0x3d44091a	0.047860242
220	0xbd45d1f9	-0.04829595
221	0x3d01ccb8	0.031689376
222	0xbd8f8e4c	-0.07009563
223	0x3d8092df	0.062780134
224	0x3c9c5078	0.01908134
225	0x3cedbd22	0.02902085
226	0xbd389cb3	-0.045071315
227	0xbc88cb77	-0.016698582
228	0x3ba8d52d	0.0051523657
229	0x3b266de5	0.0025395092
230	0xbdc155e4	-0.094402105
231	0x3cd3af56	0.025840443
232	0xbd14f2f8	-0.036364526
233	0xbd4c305a	-0.0498508
234	0xbd138b0a	-0.03602127
235	0x3cf362be	0.02971017
236	0x3af914dd	0.001900341
237	0x3c0fbd34	0.008773137
238	0x3add47cd	0.001688236
239	0xbd300ae7	-0.042979147
240	0x3d12d769	0.035849962
241	0x3c92749b	0.017877867
242	0x3c148071	0.009063826
243	0xbdb0e4ca	-0.08637388
244	0x3cee9c29	0.029127197
245	0xbc729a9e	-0.014807371
246	0xbc689779	-0.01419627
247	0xbd657cd0	-0.056027234
248	0x3d599e1d	0.053129304
249	0x3a489744	0.0007651935
250	0xbdc6f4be	-0.097146496
251	0x3a02157b	0.0004962307
252	0xbd7d89fb	-0.061899167
253	0xbd7a0424	-0.061039105
254	0x3cc8f8ac	0.024532638
255	0xbbf5a049	-0.007495914

5.bias f4 [128]
0	0xbc8fced5	-0.01755468
1	0xbe7b06d0	-0.24514318
2	0xbdd08b26	-0.101827905
3	0x3c95d511	0.018290075
4	0xbdaf12f2	-0.085485354
5	0xbc91f59e	-0.017817315
6	0xbe387737	-0.18014227
7	0x3d1942f3	0.037417363
8	0xbd154b3b	-0.0364487
9	0xbe2e150b	-0.17000215
10	0xbe88cf45	-0.26720634
11	0xbcd5c020	-0.026092589
12	0xbe9a879f	-0.30181596
13	0xbe34cb4d	-0.17655678
14	0xbc81bdc9	-0.015837567
15	0xbd9f88b3	-0.07789745
16	0xbe9f947a	-0.31167966
17	0xbe6e620f	-0.23279594
18	0xbe061656	-0.13094458
19	0xbc9577d3	-0.018245613
20	0xbf05cf96	-0.52269876
21	0xbe384cfb	-0.17998116
22	0x3d1547cc	0.036445424
23	0xbeb21588	-0.34782052
24	0xbe27e3e1	-0.16395523
25	0x39d1ea82	0.00040038308
26	0xbd1a77c8	-0.03771189
27	0xbd99f772	-0.075178996
28	0xbe13f10a	-0.14447418
29	0xbe5fcdac	-0.21855801
30	0xbcbe9cc9	-0.02326812
31	0xbd0160a3	-0.0315863
32	0xbf13d942	-0.57753384
33	0xbe383e1b	-0.17992441
34	0x3c173be8	0.009230591
35	0xbc2fc9c4	-0.010729257
36	0xbe00b382	-0.12568477
37	0xbcc215e6	-0.023692083
38	0xbdb96e91	-0.09054292
39	0xbd22f08b	-0.03978018
40	0xbeba364a	-0.36369544
41	0xbc057810	-0.008146301
42	0xbd3e6383	-0.04648162
43	0xbdeca041	-0.115540035
44	0xbe0acf9c	-0.13555759
45	0xbe1fc1cc	-0.15601271
46	0xbed4c7c7	-0.41558668
47	0xbe9d29f1	-0.3069606
48	0xbe9877aa	-0.29778796
49	0xbc8c21c2	-0.01710594
50	0xbe5ea1dc	-0.21741432
51	0xbee1f330	-0.4413085
52	0xbf0c9b48	-0.5492444
53	0xbe2b03f7	-0.16700731
54	0xbbb4a8ac	-0.0055132713
55	0xbc13aac8	-0.009012885
56	0xbc4dc4c6	-0.0125591215
57	0xbe763e84	-0.24047285
58	0xbad5cfda	-0.0016312555
59	0xbe2596d8	-0.16170824
60	0xbd775d07	-0.060391452
61	0xbedd66fe	-0.4324264
62	0xbe9ef3fe	-0.31045526
63	0xbdc64c0b	-0.09682473
64	0xb9506619	-0.0001987446
65	0xbe8c5471	-0.27408174
66	0xbe07cebd	-0.13262458
67	0xbde5d507	-0.11222272
68	0x3c599e60	0.013282388
69	0xbf00b3d3	-0.5027439
70	0xbeac3b12	-0.33638817
71	0xbeb1d046	-0.34729213
72	0xbefb8360	-0.4912367
73	0xbe0d6d77	-0.13811289
74	0xbe9bf5df	-0.30461022
75	0xbd235805	-0.039878864
76	0xbf00e549	-0.5034986
77	0xbeb6bf39	-0.35692766
78	0xbdd0015a	-0.10156508
79	0xbd8e657f	-0.069529526
80	0x3b07776f	0.0020670553
81	0x3c10763a	0.00881725
82	0xbf020fc8	-0.5080533
83	0xbf28e718	-0.6597762
84	0xbd91e895	-0.071244396
85	0xbd1e002c	-0.038574383
86	0xbd920d9a	-0.071315005
87	0xbc949fe9	-0.018142657
88	0xbc91faaa	-0.017819721
89	0xbd4b995a	-0.049706794
90	0xbc42e9d5	-0.01189657
91	0xbdb3ab82	-0.08772947
92	0xbe628fad	-0.2212512
93	0xbafd67c7	-0.0019333296
94	0x3d89b530	0.06724012
95	0xbd1038ed	-0.03521054
96	0xbf40200a	-0.7504889
97	0xbd19cdab	-0.037549656
98	0xbd267356	-0.040637337
99	0xbe25b10d	-0.16180821
100	0xbf0b49a3	-0.54409236
101	0xbd199b8c	-0.037501857
102	0xbe2cc3e4	-0.16871601
103	0xbd5ac03f	-0.053405996
104	0x3bd2f70a	0.0064381408
105	0xbdf76027	-0.120788865
106	0xbeb28957	-0.34870407
107	0xbd14d756	-0.036338173
108	0xbec96512	-0.39334923
109	0xbec98087	-0.3935587
110	0xbea4cd28	-0.32187772
111	0xbe0a8fc6	-0.13531408
112	0xbaf77016	-0.0018878009
113	0x3b529ff1	0.003213879
114	0xbe604593	-0.2190154
115	0xbc052716	-0.008126995
116	0xbe276ef0	-0.16350913
117	0xbe28b973	-0.16476993
118	0xbe436413	-0.19081144
119	0xbf1648e3	-0.58704966
120	0xbf0bdcff	-0.5463409
121	0xbcc17b78	-0.023618445
122	0xbe13e5d7	-0.14443146
123	0xbeaa7ad4	-0.33296835
124	0xbd598119	-0.053101633
125	0xbc6ba612	-0.014382856
126	0xbe1b0c10	-0.1514132
127	0xbec8b322	-0.39199167

7.weight f4 [2, 128]
0	0x3b95394f	0.004553951
1	0x3d638fd6	0.055557095
2	0x3d2a3647	0.04155567
3	0x3d83bbb7	0.06432288
4	0xbc4973f8	-0.0122957155
5	0x3ca0a381	0.019609215
6	0x3d70b2b6	0.058764182
7	0xbc79b49f	-0.015240817
8	0x3c16b4b0	0.009198353
9	0xbc2037d2	-0.009778934
10	0xbc9cf51b	-0.019159844
11	0x3d5cfd77	0.05395266
12	0xbc45bcc8	-0.012068935
13	0xbcd770ca	-0.0262989
14	0x3cd61460	0.026132762
15	0x3dbcb855	0.09214846
16	0xbd38606b	-0.045013826
17	0xbdf9f0da	-0.12204142
18	0xba14974b	-0.00056682964
19	0xbcdf12da	-0.027230669
20	0xbe352ce8	-0.17692912
21	0xbecb9bc5	-0.3976728
22	0x3d438de6	0.047742747
23	0xbc982840	-0.01857388
24	0xbca23339	-0.019799815
25	0x3ce2901e	0.027656611
26	0xbca8c319	-0.020600842
27	0x3c5789be	0.013155399
28	0x3cdcf0f1	0.026970359
29	0x3cb79507	0.022409929
30	0xbc0c3581	-0.008557678
31	0x3d310969	0.043221865
32	0xbe4128ff	-0.18863295
33	0xbd0bd807	-0.034141567
34	0x3dbd5600	0.09244919
35	0x3c7bf651	0.015378551
36	0xbdc6c87b	-0.09706207
37	0x3ba72e21	0.0051019345
38	0x3d560fda	0.05226121
39	0x3cd320ab	0.025772413
40	0xbe14bfc9	-0.14526285
41	0x3d4c016f	0.049806055
42	0xbddd2330	-0.10797727
43	0x3cfcef26	0.030875754
44	0xbc45a0cb	-0.012062262
45	0xbdbfcd75	-0.0936536
46	0xbdf29f79	-0.11846823
47	0xbda343cd	-0.07971916
48	0xbd865951	-0.065600045
49	0x3ca781f2	0.020447705
50	0xbd066707	-0.0328131
51	0x3c93f6ed	0.01806208
52	0xbe6d24cb	-0.23158567
53	0x3bf7244b	0.0075421683
54	0xbdd7bf56	-0.10534541
55	0x3d15f252	0.036608048
56	0x3c1b8e5c	0.00949439
57	0x3d27d12a	0.04097096
58	0x3b3d72c0	0.0028907508
59	0x3d22437e	0.039615147
60	0x3cc6456d	0.024203027
61	0xbdc0fffc	-0.09423825
62	0xbe200d0d	-0.15629978
63	0x3cbd7a5f	0.02312964
64	0x3dd7c428	0.10535461
65	0xbd254cb3	-0.04035635
66	0xbbcab365	-0.0061859363
67	0xbd43ffaf	-0.04785126
68	0x3db8af80	0.09017849
69	0xbe10c6c4	-0.14138323
70	0xbd4737f3	-0.04863734
71	0xbe413df9	-0.18871297
72	0xbe451767	-0.19247209
73	0x3d0814b5	0.033222873
74	0xbc62fd06	-0.013854271
75	0x3d955c5b	0.07293006
76	0xbd9d4fa1	-0.07681204
77	0x3c028d06	0.007968193
78	0x3c54f5b6	0.012998035
79	0x3ca816a1	0.020518603
80	0xbbbb9e8f	-0.0057256888
81	0xbb48b4c2	-0.0030625318
82	0xbd21802c	-0.039428875
83	0xbde1fe3b	-0.11034819
84	0x3c5b9f28	0.013404645
85	0x3c65db9c	0.01402941
86	0x3d5b234c	0.05350046
87	0xbacdce2f	-0.0015701706
88	0x3d816516	0.06318109
89	0x3c38ee35	0.011287262
90	0xbc9e8060	-0.019348323
91	0x3cf8947e	0.030344244
92	0xbe0d078c	-0.1377241
93	0x3b5a51d0	0.0033312924
94	0x3cff1688	0.031138673
95	0x3d5a5bda	0.053310253
96	0xbd2bc6f6	-0.04193779
97	0x3d0868ff	0.033303257
98	0xbd317748	-0.043326646
99	0x3bc94326	0.006142038
100	0xbd2730c5	-0.040817995
101	0x3d688409	0.056766544
102	0x3d7e5d12	0.062100478
103	0xbd094e93	-0.0335222
104	0xbbae088a	-0.0053110765
105	0xbe580fe7	-0.21099816
106	0xbe082f64	-0.13299328
107	0xbac339da	-0.001489456
108	0x3b28b1cd	0.0025740743
109	0xbdfddf45	-0.12396101
110	0xbd6739d6	-0.05645164
111	0xbdbc4a7f	-0.091938965
112	0x3d50f57a	0.051015355
113	0x3d7312ec	0.059344217
114	0xbcdb0651	-0.02673641
115	0x3c068ada	0.008211816
116	0xbc9abcae	-0.018888798
117	0xbc535e6b	-0.012900929
118	0xbbecae92	-0.007222959
119	0xbd968ebf	-0.073514454
120	0xbbd7711a	-0.006574762
121	0xbd1e8a21	-0.03870595
122	0xbc9e495e	-0.019322094
123	0x3c16b91e	0.009199409
124	0x3b9b872b	0.004746338
125	0x3cdb7afb	0.02679204
126	0x3b97228c	0.0046122726
127	0xbd5ae79b	-0.053443532
128	0x3c29110c	0.010319006
129	0x3b143ad0	0.0022618063
130	0xbc5c9414	-0.013463039
131	0x3c7121b1	0.014717505
132	0xbcd2791b	-0.025692513
133	0xbcf5005f	-0.029907404
134	0xbc307efa	-0.010772461
135	0x3b0bc85e	0.0021329145
136	0xbcac2caa	-0.021017391
137	0xbbe8d9fa	-0.007106063
138	0x3c892693	0.016742026
139	0xbca9ec7c	-0.020742647
140	0x3d43c5db	0.04779611
141	0xbbb5ba29	-0.0055458737
142	0xbce93850	-0.028469235
143	0x3c77aec6	0.015117353
144	0xbba75b4a	-0.005107318
145	0x3d99ece0	0.075158834
146	0xbab0e051	-0.0013494586
147	0x3c2d5ff0	0.010581955
148	0xbddae2ef	-0.106878154
149	0x3d8d8de1	0.06911827
150	0x3b1a5488	0.002354892
151	0x3cdaeae7	0.026723338
152	0xbcd131d8	-0.025536463
153	0x3c3f9397	0.011692903
154	0xbcf045c2	-0.029330138
155	0xbcb75d5d	-0.022383386
156	0xbc4993c3	-0.012303296
157	0x3d169e1f	0.03677189
158	0xbd0c2469	-0.03421441
159	0xbd405f52	-0.046965905
160	0xbc9b3e41	-0.018950583
161	0x3aa37115	0.0012469614
162	0xbcac9ad1	-0.021069916
163	0xbd09a21e	-0.033601873
164	0xbc7fb265	-0.015606497
165	0xbd1dce22	-0.03852666
166	0xbbd8c7b4	-0.0066156033
167	0xbbfb2ba8	-0.0076651163
168	0x3d38475b	0.044989925
169	0x3ccddb33	0.025128936
170	0x3b95ff25	0.0045775347
171	0x3ca4f48b	0.020136138
172	0xbc6352c8	-0.013874717
173	0xbce2fccc	-0.027708434
174	0x3dd2a29d	0.10284922
175	0xbbd7909a	-0.006578517
176	0xbc0e9916	-0.008703491
177	0xbd1a37eb	-0.037650984
178	0xbc70d1ea	-0.014698485
179	0xbaffa8f6	-0.001950531
180	0xbe299458	-0.16560495
181	0x39c1c293	0.00036956798
182	0xbc3d16a5	-0.011541043
183	0xbc8ca0fa	-0.017166603
184	0xbd0a896e	-0.03382247
185	0xbb92f847	-0.0044851634
186	0xbd15f42d	-0.036609817
187	0x3bc519e3	0.006015049
188	0xbd17e8a5	-0.0370871
189	0x3d4e70c3	0.050400507
190	0x3dd328ec	0.103105396
191	0xbc6daeab	-0.014506976
192	0xbc8a9a9a	-0.016919423
193	0x3c7bd903	0.015371564
194	0x3bd6a5c2	0.0065505216
195	0xbd2bb1c6	-0.041917585
196	0xbbef1d70	-0.0072972104
197	0xbdb60f6e	-0.08889662
198	0xbcdc64c4	-0.026903518
199	0x3d67b351	0.056567494
200	0xbe17f5f2	-0.14839914
201	0x3d16235f	0.036654826
202	0x3cfdd402	0.030984882
203	0xbc645f9e	-0.013938813
204	0xbdab6632	-0.083691016
205	0x3c9ecf9b	0.019386103
206	0x3b383634	0.002810848
207	0xbc5a7c66	-0.013335323
208	0x3cb4326c	0.0219967
209	0xbbf78b0f	-0.007554419
210	0xbd51081a	-0.051033117
211	0xbd63a29f	-0.05557501
212	0x3c96e2dd	0.018418724
213	0xbbff7f60	-0.0077971667
214	0xbca7e21b	-0.020493558
215	0x3bd30997	0.006440352
216	0x3c34be38	0.01103168
217	0xbb91d21b	-0.0044500954
218	0xbd0f1301	-0.034930233
219	0xbc91ebc8	-0.017812625
220	0xbd16f94b	-0.036858838
221	0xbd51409f	-0.051087018
222	0xbc0200db	-0.007934774
223	0xbc9e6d20	-0.019339144
224	0x3c248dd6	0.010043582
225	0xbc905ed5	-0.017623344
226	0xbcc6410a	-0.024200935
227	0xbd001d95	-0.03127821
228	0xbd4779be	-0.048700087
229	0xbac391d0	-0.0014920775
230	0xbca939cd	-0.020657444
231	0xbc1ff56c	-0.009763103
232	0xbd4421f2	-0.047883935
233	0x3d982c42	0.074303165
234	0xbddc5dd3	-0.10760083
235	0xbd1e91a6	-0.03871312
236	0xbcda1f96	-0.02662639
237	0x3b9d1caf	0.004794679
238	0x3cecce38	0.028906927
239	0x3c9ffd2a	0.019529898
240	0xbcc1cbf7	-0.023656828
241	0xbb2cd09d	-0.002636946
242	0x3d767249	0.060167585
243	0xbd38f615	-0.045156557
244	0xbd11c85c	-0.03559147
245	0xbb6d4751	-0.0036205838
246	0x3bbea73c	0.0058182757
247	0xbdbef7a8	-0.093245804
248	0x3d5ca43c	0.053867564
249	0x3afed4f1	0.0019442124
250	0xbb91a2c2	-0.004444451
251	0x3c1068b8	0.008814029
252	0xbc472953	-0.012155849
253	0xbcfb0179	-0.03064035
254	0xbd0fdb6a	-0.03512136
255	0x3c182e97	0.009288452

7.bias f4 [2]
0	0x3e8570bc	0.26062572
1	0xbd99d9d2	-0.07512249
