scene/checkpoints/clip_vit-b32_head.pth (torch, 6133 bytes, 2 tensors)

0.weight f4 [2, 512]
0.038783565 -0.011305539 0.031618793 -0.021236788 -0.031913474 -0.019623276 0.08940864 -0.032853805
0.04839085 0.0044766176 -0.041728556 -0.01602097 -0.053982925 0.006250947 0.010761341 -0.084274575
0.06132795 -0.0053779744 -0.00073500926 0.041712336 -0.005646715 0.08025257 0.063717484 0.05323413
-0.03189992 -0.022517899 0.02309947 0.0009302212 -0.090940416 0.0002691574 0.074712075 -0.049225967
0.026268557 0.028649947 0.036917318 0.1289479 -0.063685514 0.008606485 0.062216233 -0.00544938
0.0043678796 -0.009606235 0.019894907 -0.023746846 0.0061769914 -0.07819495 -0.042912427 -0.0032738354
-0.019771656 0.017634843 0.11425344 -0.007855277 -0.021906354 0.03767092 0.07524713 -0.0046636458
-0.022397086 -0.051115658 -0.010047565 0.093227595 -0.013977073 0.017399907 0.05683535 -0.063413456
-0.025405625 0.022306638 -0.044159535 0.062230166 -0.0032115786 -0.045817833 -0.025617186 0.039112728
-0.03567058 0.07665131 -0.0045688706 -0.035526402 0.056046728 -0.069759 -0.029481484 0.00668368
0.020333858 0.03901659 0.1126316 -0.024767427 -0.03382251 0.053730916 0.035666086 0.0036652498
0.077859856 -0.02026588 0.04176052 -0.00073408405 -0.02383618 -0.09177452 0.12069387 0.02398605
-0.026846718 -0.05247915 -0.059009694 -0.05379562 0.0905638 -0.016856937 -0.08624836 -0.0018161561
0.104030095 -0.06719533 0.098379664 -0.013062125 0.018669102 0.06484356 0.022375548 0.06322845
-0.04637135 -0.011914519 0.017487919 0.012000043 0.0066782697 0.018089563 -0.014750018 -0.08738719
-0.025180083 0.049003422 -0.08838602 -0.080052756 0.09498307 -0.10449339 -0.008212453 0.04360508
0.006514522 0.012346436 0.05179328 -0.04284493 0.010363492 0.038149294 -0.045929898 -0.032507446
-0.012485043 -0.1167216 0.105675474 0.09010306 -0.017447649 -0.030556772 -0.030416736 0.06440601
0.05748843 -0.038036752 0.005544516 0.015577571 0.038208295 0.058444154 0.03549685 -0.09328603
-0.061934054 0.04268224 0.00917324 -0.054888293 0.03427131 -0.116239466 -0.056529537 0.089825146
0.07356042 0.06404565 0.1207398 0.0033973178 0.051247604 0.003608695 0.0479516 -0.0071496535
-0.019689864 -0.0075133843 0.020336952 0.10860511 0.012373397 -0.061912183 0.12428695 -0.016778547
-0.052354697 -0.06461731 -0.02008408 -0.07338388 -0.057441473 0.016865024 -0.033899408 -0.0151645485
0.02408589 -0.0008170536 0.017480813 0.04788489 0.045687746 -0.04764777 -0.07517301 0.011247066
-0.055332687 -0.0029061525 -0.07659506 -0.057803504 0.07838234 0.07063801 -0.011005099 0.044693608
-0.066000156 -0.0050036064 -0.0020546638 -0.019513726 0.039568566 -0.0035373545 0.08381239 -0.052303024
0.008480562 0.06931406 -0.023539599 -0.09033254 0.002557965 0.027190397 -0.05519417 -0.08199563
0.0011289492 0.028252548 -0.033930574 0.036307327 -0.017207034 -0.010923264 -0.0730839 -0.06896789
-0.02520153 0.033798184 0.027044106 0.008222581 -0.0994591 -0.08477496 0.027427165 -0.009860608
0.0015755281 0.014773775 0.010036065 0.032164797 -0.09457066 0.0429046 -0.07902941 -0.07841386
-0.035004236 -0.054797474 -0.0458879 -0.052065305 0.005730466 0.048177924 0.042004585 0.06875921
-0.020915646 0.03311627 -0.072350085 -0.054028563 0.05859075 0.031241545 0.050107744 -0.07155512
00000000: 84db 1e3d de3a 39bc b582 013d c6f8 adbc
00000010: b4b7 02bd fec0 a0bc e11b b73d b691 06bd
00000020: 7c35 463d 97b0 923b 90eb 2abd 693e 83bc
00000030: 331d 5dbd bed4 cc3b 5650 303c 2698 acbd
00000040: 0433 7b3d b839 b0bb a3ad 40ba 8eda 2a3d
00000050: 1408 b9bb 765b a43d 507e 823d 080c 5a3d
00000060: 7ea9 02bd 7577 b8bc 1a3b bd3c 17da 733a
00000070: f83e babd b21d 8d39 a502 993d 2ba1 49bd
00000080: 2831 d73c 4bb3 ea3c 9d36 173d eb0a 043e
00000090: 8d6d 82bd 3702 0d3c 73d6 7e3d b690 b2bb
000000a0: 6e20 8f3b 7863 1dbc a5fa a23c bf88 c2bc
000000b0: 5c68 ca3b ad24 a0bd f1c4 2fbd d88d 56bb
000000c0: 2bf8 a1bc f276 903c b5fd e93d 6bb3 00bc
000000d0: f474 b3bc d34c 1a3d 2b1b 9a3d 7fd1 98bb
000000e0: 187a b7bc a75e 51bd 8b9e 24bc 1cee be3d
000000f0: 1800 65bc 408a 8e3c 2fcc 683d eade 81bd
00000100: 751f d0bc 69bc b63c a1e0 34bd 0fe5 7e3d
00000110: 5979 52bb 7bab 3bbd 22db d1bc ab34 203d
00000120: 501b 12bd 5dfb 9c3d 77b6 95bb 2284 11bd
00000130: 4191 653d cedd 8ebd 2783 f1bc c602 db3b
00000140: 3193 a63c dccf 1f3d 65ab e63d 0fe5 cabc
00000150: 7989 0abd f314 5c3d 9a16 123d b034 703b
00000160: fd74 9f3d a104 a6bc 140d 2b3d 8c6f 40ba
00000170: 1844 c3bc 48f4 bbbd 592e f73d 657e c43c
00000180: a6ed dbbc 61f4 56bd 26b4 71bd cc58 5cbd
00000190: 8379 b93d 8f17 8abc fba2 b0bd 160c eeba
000001a0: bb0d d53d b59d 89bd 477b c93d 8602 56bc
000001b0: f2ef 983c b3cc 843d ed4c b73c eb7d 813d
000001c0: e2ef 3dbd 1d35 43bc d342 8f3c d49b 443c
000001d0: 63d5 da3b 9030 943c 0faa 71bc 0ef8 b2bd
000001e0: 7646 cebc d0b7 483d bb03 b5bd b3f2 a3bd
000001f0: 7c86 c23d a100 d6bd 868d 06bc 3e9b 323d
00000200: c577 d53b b548 4a3c 3125 543d 2a7e 2fbd
00000210: a3cb 293c 6f42 1c3d fd20 3cbd 8726 05bd
00000220: 118e 4cbc bc0b efbd 626c d83d f487 b83d
00000230: 5fee 8ebc 3252 fabc 852c f9bc 4ce7 833d
00000240: fd78 6b3d 6dcc 1bbd c5ae b53b 1139 7f3c
00000250: 4d80 1c3d 2363 6f3d 2565 113d bf0c bfbd
00000260: 90ae 7dbd 93d3 2e3d 5b4b 163c 8cd2 60bd
00000270: 1360 0c3d f50e eebd 848b 67bd 3ff6 b73d
00000280: d8a6 963d 5e2a 833d 6e46 f73d 89a5 5e3b
00000290: 02e9 513d db7f 6c3b e668 443d a447 eabb
000002a0: a34c a1bc d632 f6bb ae99 a63c 5b6c de3d
000002b0: cab9 4a3c a197 7dbd 288a fe3d 2a73 89bc
000002c0: e171 56bd 1556 84bd 5e87 a4bc 4a4a 96bd
000002d0: c047 6bbd 8528 8a3c 1bda 0abd ba74 78bc
000002e0: c64f c53c 8a2f 56ba ec33 8f3c f222 443d
000002f0: 1323 3b3d 4f2a 43bd 4ff4 99bd 9d45 383c
00000300: 87a4 62bd 2675 3ebb dfdd 9cbd 5ec3 6cbd
00000310: ec86 a03d a9aa 903d bb4e 34bc a510 373d
00000320: 172b 87bd 4bf5 a3bb 8aa7 06bb 40db 9fbc
00000330: a612 223d f6d2 67bb d5a5 ab3d b23b 56bd
00000340: 0ef2 0a3c 88f4 8d3d 1ed6 c0bc 4400 b9bd
00000350: 88a3 273b 65be de3c 4813 62bd 53ed a7bd
00000360: 40f9 933a e371 e73c c9fa 0abd feb6 143d
00000370: c4f5 8cbc 7df7 32bc 03ad 95bd 0a3f 8dbd
00000380: 7073 cebc f76f 0a3d 9a8b dd3c 01b8 063c
00000390: 36b1 cbbd 7f9e adbd efae e03c 638e 21bc
000003a0: f381 ce3a b40d 723c 4f6e 243c 3cbf 033d
000003b0: 43ae c1bd bcbc 2f3d 2cda a1bd 7297 a0bd
000003c0: 9a60 0fbd 5173 60bd f3f4 3bbd 6e42 55bd
000003d0: a2c6 bb3b 3756 453d 000d 2c3d a1d1 8c3d
000003e0: 4a57 abbc eda4 073d 482c 94bd 0e4d 5dbd
000003f0: dbfc 6f3d 45ee ff3c c73d 4d3d 7e8b 92bd

0.bias f4 [2]
-0.0029085965 -0.042948235
00000000: 279e 3ebb 7dea 2fbd
