scene/checkpoints/dinov3_baseline_head.pth (torch, 8205 bytes, 2 tensors)

0.weight f4 [2, 768]
0.0022311173 0.0041642864 0.020070568 -0.021088634 0.051946986 0.02575962 0.011614185 0.056744505
0.034638815 0.028334128 0.045147374 0.013531515 -0.0122813005 -3.264012e-05 -0.06450601 -0.006296103
-0.04421033 -0.03241843 0.010743464 0.048748903 -0.016126845 -0.026144769 0.036899045 0.016780725
0.021707818 -0.022891466 -0.0018160994 0.03915321 0.006964622 0.0020772235 0.003163654 -0.014717463
-9.274221e-05 -0.010658298 0.016182998 -0.018486021 -0.011988114 -0.0365927 0.033629987 -0.03672423
-0.0056441627 0.040086024 0.060250957 -0.012231157 0.00428996 -0.021004325 0.05093896 -0.02855664
-0.0011282384 -0.042199165 0.019977674 -0.019816112 0.046238072 -0.04919639 0.00096720294 0.0027849248
0.01410283 -0.012293029 0.02926938 -0.024912566 0.004458295 0.022988044 -0.040936235 0.01769605
0.035599522 0.033888355 -0.028027928 0.013708912 -0.03880542 -0.033817865 0.034644086 0.02151103
0.026052622 0.016708847 0.0074104434 -0.021203928 -0.037257805 0.0027230307 0.12263325 -0.014748629
-0.024998806 0.012564515 0.010186343 0.01571497 0.056454647 0.0085925665 -0.018392028 -0.018684946
0.014517498 -0.018547319 0.037584808 -0.023526 0.021517962 -0.0063955025 0.0012277578 0.0057957876
-0.028323473 -0.028884003 -0.054507047 0.009470543 -0.0053712144 -0.046315618 0.0036009229 0.0051433593
-0.06481202 -0.03337515 0.0011146693 0.00910377 -0.05784558 0.0126104355 0.008372917 -0.023712441
0.050220434 -0.02539101 0.010504311 0.0065560406 0.008224108 0.004625076 0.00482249 -0.004273078
-0.016934576 -0.041772645 0.050551653 0.045113612 0.018577259 -0.032603975 0.017535763 -0.009010716
-0.015814267 0.047539905 -0.031205654 -0.037705068 -0.0042519053 -0.014839917 0.00049882144 0.022573069
-0.0030520896 0.012679697 0.025165606 -0.038200684 0.0024294874 -0.018757999 -0.009325938 0.06659371
-0.015115638 -0.002167082 -0.04386529 0.034858003 0.025948469 0.02087826 0.063840374 0.0067396597
-0.010211754 0.05419349 -0.013669967 -0.0022942694 0.013393732 0.02321472 -0.023831662 -0.024458978
-0.03084112 -0.011460017 -0.038184498 -0.019517858 -0.007981385 -0.03157163 -0.06969071 0.018953044
-0.03447138 0.0068109473 -0.013401601 0.02244724 -0.018135581 0.08949895 0.06283256 -0.0033227748
-0.066226676 0.06416507 0.026248394 -0.011609182 -0.016372556 -0.028413873 -0.039559186 0.009166259
-0.007393198 0.046492875 -0.00095178944 0.047631998 0.031794593 0.02110431 -0.00972551 -0.061316192
0.043210838 0.047548316 -0.043769535 -0.026126085 0.0038476572 -0.001253299 0.035450984 0.022810392
-0.004436664 0.031741858 -0.009405937 -0.02515261 -0.00012166146 0.025824917 -0.029718336 -0.019930188
-0.046067577 0.028814446 0.021876233 0.005576215 0.05000481 -0.009464309 -0.063027434 -0.095331386
0.03731427 0.0024599612 -0.023780474 -0.021184195 0.015921423 -0.002754932 0.028633086 0.0045562265
0.004164685 0.017543348 -0.0073887967 0.0033942077 -0.014320259 -0.028207028 0.009116745 -0.02579823
0.025838923 -0.0063825618 0.012933192 0.008610481 0.009358163 0.043035947 -0.03764023 -0.024353374
-0.04268576 0.041617934 -0.007815983 0.044811256 0.0071882564 0.045853585 0.0072191176 -0.0071629174
0.04029117 -0.0062039047 0.0062354584 -0.01985661 -0.0047392985 0.0020140086 0.050437003 0.008301856
00000000: f037 123b 9174 883b 086b a43c 12c2 acbc
00000010: 5dc6 543d d705 d33c 6c49 3e3c ed6c 683d
00000020: 6ee1 0d3d f91c e83c 74ec 383d 4ab3 5d3c
00000030: 8237 49bc 10e7 08b8 ba1b 84bd 8a4f cebb
00000040: e415 35bd 30c9 04bd 5b05 303c eeac 473d
00000050: 721c 84bc 8e2d d6bc 7423 173d bb77 893c
00000060: 98d4 b13c e286 bbbc 2f0a eeba 1e5f 203d
00000070: 7c37 e43b 0722 083b 4e55 4f3b 8421 71bc
00000080: 987e c2b8 24a0 2ebc 3592 843c ff6f 97bc
00000090: cb69 44bc 3ae2 15bd 99bf 093d 256c 16bd
000000a0: abf2 b8bb 3e31 243d b5c9 763d 3165 48bc
000000b0: cb92 8c3b 4311 acbc 5fa5 503d 9def e9bc
000000c0: 66e1 93ba 08d9 2cbd 38a8 a33c 6655 a2bc
000000d0: 2264 3d3d 2782 49bd e48b 7d3a 4983 363b
000000e0: 8e0f 673c b368 49bc 57c6 ef3c 7015 ccbc
000000f0: e416 923b 6c51 bc3c c1ac 27bd 4ff7 903c
00000100: ced0 113d 84ce 0a3d d39a e5bc 589b 603c
00000110: 6ff2 1ebd 9a84 0abd f5e6 0d3d e637 b03c
00000120: 4f6c d53c fee0 883c 4ed3 f23b dcb3 adbc
00000130: a49b 18bd e074 323b 2427 fb3d 3ca4 71bc
00000140: 4cca ccbc 65db 4d3c 9fe4 263c aebc 803c
00000150: fd3c 673d d6c7 0c3c e1aa 96bc 2c11 99bc
00000160: cdda 6d3c 8cf0 97bc 87f2 193d 99b9 c0bc
00000170: 7046 b03c 5d91 d1bb b7ec a03a 97ea bd3b
00000180: a106 e8bc 259e ecbc c842 5fbd 562a 1b3c
00000190: 0301 b0bb 72b5 3dbd 76fd 6b3b a089 a83b
000001a0: 2abc 84bd 62b4 08bd 181a 923a fb27 153c
000001b0: 7def 6cbd 009c 4e3c 8f2e 093c 9840 c2bc
000001c0: f1b3 4d3d cf00 d0bc 461a 2c3c 0ed4 d63b
000001d0: 69be 063c f38d 973b fa05 9e3b 2d05 8cbb
000001e0: 61ba 8abc cb19 2bbd 400f 4f3d 0dc9 383d
000001f0: 562f 983c bf8b 05bd 29a7 8f3c afa1 13bc
00000200: ec8c 81bc 34b9 423d 00a3 ffbc a170 1abd
00000210: 9153 8bbb 2023 73bc 57c3 023a 28eb b83c
00000220: 9105 48bb 81be 4f3c 1a28 ce3c 5278 1cbd
00000230: 0938 1f3b 60aa 99bc d2cb 18bc 4862 883d
00000240: 95a7 77bc 9a05 0ebb 17ac 33bd 44c7 0e3d
00000250: e291 d43c e208 ab3c bebe 823d 5dd8 dc3b
00000260: 334f 27bc fef9 5d3d fff7 5fbc 745b 16bb
00000270: 6271 5b3c cc2c be3c 9e3a c3bc 325e c8bc
00000280: 84a6 fcbc ccc2 3bbc 5967 1cbd eae3 9fbc
00000290: 5bc4 02bc 4151 01bd 01ba 8ebd 6a43 9b3c
000002a0: dd31 0dbd 5e2e df3b 6492 5bbc 46e3 b73c
000002b0: 1291 94bc 3a4b b73d 5bae 803d e9c2 59bb
000002c0: daa1 87bd fa68 833d df06 d73c 7034 3ebc
000002d0: bd1f 86bc 36c4 e8bc d008 22bd 142e 163c
000002e0: a442 f2bb 506f 3e3d 8281 79ba c519 433d
000002f0: 0c3b 023d f2e2 ac3c bf57 1fbc b026 7bbd
00000300: d9fd 303d 06c2 423d af47 33bd 5f06 d6bc
00000310: fa28 7c3b bc45 a4ba 0d35 113d dcdc ba3c
00000320: 6f61 91bb c003 023d 5c1b 1abc d90c cebc
00000330: 8024 ffb8 c78e d33c de73 f3bc a244 a3bc
00000340: 5bb1 3cbd 460c ec3c c935 b33c afb8 b63b
00000350: d8d1 4c3d 3010 1bbc 8714 81bd 1a3d c3bd
00000360: d9d6 183d 4d37 213b 45cf c2bc 7a8a adbc
00000370: a56d 823c 178c 34bb ef8f ea3c 664c 953b
00000380: e977 883b 11b7 8f3c b81d f2bb 5b71 5e3b
00000390: 859f 6abc 6d12 e7bc 665e 153c cf56 d3bc
000003a0: 26ac d33c cf24 d1bb bde5 533c fa12 0d3c
000003b0: fb52 193c 7646 303d a42c 1abd ba80 c7bc
000003c0: 43d7 2ebd 9177 2a3d 9c0e 00bc 028c 373d
000003d0: 778b eb3b f8d0 3b3d 598e ec3b e8b6 eabb
000003e0: 5b08 253d 204a cbbb d152 cc3b 54aa a2bc
000003f0: 1e4c 9bbb 75fd 033b 0897 4e3d 8204 083c

0.bias f4 [2]
0.11798526 -0.03148703
00000000: 42a2 f13d 8bf8 00bd
