scene/checkpoints/generic_head.pth (torch, 18381 bytes, 2 tensors)

0.weight f4 [2, 2048]
0	0xbca8fb00	-0.020627499
1	0x3cabaf1a	0.020957518
2	0x3c0209eb	0.007936935
3	0xbb8fe700	-0.004391551
4	0x3ca2eb50	0.019887596
5	0xbca3d449	-0.019998686
6	0xbaab28f3	-0.0013058468
7	0x3b4e83c0	0.0031511635
8	0xbc41e239	-0.011833721
9	0x3be59cd4	0.0070072208
10	0x3c83bd98	0.016081616
11	0x3b52c3da	0.0032160194
12	0xbb85e94d	-0.0040866495
13	0x3c66e8af	0.014093562
14	0xbbfb2e47	-0.007665429
15	0xbc7e3258	-0.015514933
16	0xbc57cf9f	-0.013172059
17	0xbc4a025f	-0.012329667
18	0x3b52b528	0.0032151435
19	0x3c091b11	0.00836827
20	0xbb9d94e3	-0.0048090084
21	0x3b668d14	0.0035179304
22	0x3b0b1ee3	0.0021228127
23	0x3c903070	0.017601222
24	0x3c636a0e	0.013880266
25	0xbc09deec	-0.008414965
26	0x3c9aae44	0.018881924
27	0xbc405411	-0.011738793
28	0x3ca6f0d9	0.020378517
29	0x3ca834dc	0.020533018
30	0x3b5c2101	0.0033589008
31	0x3c2b87e1	0.010469408
32	0xbc5d86d1	-0.013520912
33	0x3c52636a	0.012841085
34	0xbb9a4135	-0.0047074803
35	0x3c245500	0.010030031
36	0x3c9bf47b	0.019037476
37	0x3c7a2174	0.015266765
38	0x3c98cf2d	0.018653477
39	0xbca84cc8	-0.020544425
40	0x3c9b008b	0.018921157
41	0xbc62fc02	-0.013854029
42	0x3ca09210	0.019600898
43	0x39aa5a92	0.00032492407
44	0x3c2f1dc6	0.010688251
45	0xbb8a38ed	-0.004218212
46	0x3c01a9cb	0.007914017
47	0xbc9149b0	-0.017735332
48	0x3c4d1edb	0.012519564
49	0xbb8a5c6e	-0.0042224443
50	0x3b151e40	0.0022753626
51	0x3bba56fd	0.0056866393
52	0xbc245e64	-0.01003227
53	0x3c1fe4a5	0.009759103
54	0x3c8689d9	0.016423153
55	0xbbb17e96	-0.0054167015
56	0x3b59adb4	0.0033215107
57	0x3c16219e	0.009163288
58	0x3b516dfb	0.0031956423
59	0xbc0c0136	-0.008545211
60	0x3ba634bd	0.005072205
61	0x3ca1387a	0.01968025
62	0xbb8ee226	-0.004360455
63	0x3bea580b	0.007151609
64	0x3cb5cccf	0.022192387
65	0x3bed0c0a	0.007234101
66	0x3ca16bee	0.019704785
67	0x3c08b32f	0.008343502
68	0x3c8801bc	0.01660239
69	0x3bdf3b78	0.006812509
70	0x3b5c3446	0.0033600493
71	0xbcab9551	-0.020945223
72	0x3b6d6ef2	0.0036229459
73	0x3c9ad69c	0.018901162
74	0x3c935ee2	0.01798958
75	0x3caedddc	0.021346025
76	0xbc8111ed	-0.015755618
77	0xbbdb11f1	-0.0066854884
78	0x3c82a636	0.015948396
79	0x3b9bbbcd	0.004752612
80	0xbc3d2496	-0.011544367
81	0x3c4738b3	0.012159514
82	0xb98a799c	-0.00026412017
83	0x3c997de1	0.018736782
84	0x3c4c3e5c	0.0124660395
85	0xbb8ffc37	-0.00439408
86	0xbc07334d	-0.008251977
87	0xbc755f63	-0.014976355
88	0xbb758013	-0.0037460371
89	0x3bd692c4	0.0065482575
90	0xbb914e76	-0.004434402
91	0xba48c7c8	-0.0007659164
92	0xbc32ee10	-0.010921016
93	0x3c9c0df7	0.019049628
94	0xbc8c1ddb	-0.01710408
95	0xbb5df4bc	-0.0033867797
96	0xbc88a2d9	-0.016679214
97	0xbbc25e6a	-0.005931665
98	0x3c9117c0	0.01771152
99	0xbc2ca2b1	-0.0105368355
100	0xbc58ee05	-0.013240342
101	0xbc5e6ae5	-0.01357529
102	0xbc33fa72	-0.010985004
103	0xbc8ff335	-0.017572025
104	0x3c3c1ed2	0.0114819575
105	0xbbafeefc	-0.0053690653
106	0xbbe30cb2	-0.0069290036
107	0xbc27de01	-0.010245801
108	0xbc9d16ed	-0.01917597
109	0xbbb38159	-0.005478066
110	0xbca04163	-0.019562429
111	0x3b421aa8	0.002961794
112	0xbb10da2d	-0.00221027
113	0x3aba8cb0	0.0014232602
114	0x3c207ee7	0.009795881
115	0xbb32916e	-0.0027247327
116	0xbb5a0e6d	-0.0033272759
117	0xbcb3dffa	-0.021957386
118	0xbc3df8ed	-0.011594993
119	0xbc374013	-0.01118471
120	0x3c4a40a2	0.012344511
121	0x3cb41a79	0.02198528
122	0x3ba8a40c	0.005146509
123	0xbc992304	-0.018693455
124	0x3bd2d513	0.006434092
125	0x3a90919b	0.0011029722
126	0x3c76facd	0.015074444
127	0xb9a048a8	-0.0003057171
128	0x3bd39aa7	0.006457645
129	0x3b9817fc	0.004641531
130	0xbad90b0f	-0.0016559082
131	0xbbb96b2c	-0.005658528
132	0x3c5d1714	0.013494272
133	0x3c99731b	0.018731644
134	0xbc838960	-0.016056716
135	0xbc8a983a	-0.01691829
136	0x3b224d2c	0.0024765236
137	0xbadc79c1	-0.0016820953
138	0xbca278b9	-0.019832956
139	0x3a6b670b	0.0008979893
140	0xbbeab5ca	-0.007162784
141	0xbc3eb374	-0.011639465
142	0xbc2863f8	-0.010277741
143	0xbc9777ef	-0.018489806
144	0xbc929b10	-0.017896205
145	0x3b57e6e4	0.0032944018
146	0xbb016c23	-0.0019748292
147	0x3a96902f	0.0011487062
148	0x3c5c0536	0.013428977
149	0x3c56c44d	0.013108325
150	0x3c8beee8	0.017081693
151	0xbab698f0	-0.0013931077
152	0x3cb30a33	0.02185545
153	0xbbbc3293	-0.0057433336
154	0x3cb5e175	0.022202233
155	0x3c146cb4	0.00905912
156	0x3c9e96ed	0.019359076
157	0xbc3330c1	-0.010936917
158	0x3cabb68f	0.020961074
159	0x3c5c56f0	0.013448462
160	0x3c6d060e	0.014466776
161	0xba03a3f5	-0.0005021685
162	0xbb90c97a	-0.004418549
163	0x3bcc8f1d	0.0062426464
164	0xbc0f5bac	-0.008749884
165	0xbc8af295	-0.016961375
166	0x3c7b81f0	0.015350804
167	0x3c8bc36f	0.017060963
168	0xbb0022ec	-0.0019552065
169	0xbc3fb3bd	-0.011700568
170	0xba1d973c	-0.00060116104
171	0x3c817be4	0.015806146
172	0xbbb9bcee	-0.005668274
173	0xbb56eaf0	-0.0032793842
174	0x3c31d2b5	0.010853459
175	0xbc00527c	-0.007832166
176	0x3a9676da	0.0011479512
177	0x3c5b3ece	0.013381673
178	0xbc5d0ccd	-0.0134918215
179	0x3912f384	0.00014014362
180	0xbca64081	-0.02029443
181	0x3c2a0201	0.010376454
182	0xbbba443a	-0.005684403
183	0xbc1c2c9f	-0.009532123
184	0x3c903fb5	0.017608503
185	0x3c5c415d	0.013443318
186	0xbcad47c2	-0.02115238
187	0x3c00e89d	0.007867959
188	0x3c25f8ad	0.01013009
189	0xbc7db934	-0.01548605
190	0x3c776556	0.015099844
191	0xbc73e243	-0.014885488
192	0xbc91a541	-0.017778995
193	0xbc928229	-0.01788433
194	0xbc9d0f3b	-0.019172302
195	0xbb5d6bb0	-0.003378611
196	0x3b8fd9e9	0.0043899906
197	0x3bf79016	0.007555018
198	0x3c959920	0.018261492
199	0xb9f27f7e	-0.00046252826
200	0x3c24f897	0.010069034
201	0xbaa80a53	-0.001282046
202	0xbc849127	-0.016182495
203	0x3c82169d	0.015879923
204	0x3c4ea199	0.01261177
205	0xbc8e5a70	-0.017377108
206	0x3c33fc59	0.010985457
207	0xbc1671a1	-0.009182365
208	0x3c959d93	0.018263614
209	0x3b0401f6	0.002014277
210	0x3c354104	0.011062864
211	0xbc79e027	-0.015251196
212	0xbc71a8bd	-0.014749703
213	0x3c27694b	0.010217975
214	0x3b248ef4	0.002510962
215	0xbbb02582	-0.005375565
216	0x3c3673d2	0.011136012
217	0x3cac12ca	0.021005053
218	0xbbf6ea1e	-0.007535233
219	0xbc503900	-0.012708902
220	0xbc016bf4	-0.007899273
221	0x3c8a951b	0.016916802
222	0x3c7c6e2b	0.015407125
223	0xbbb9737d	-0.005659519
224	0xbbfa0a81	-0.0076306467
225	0xbcb0520d	-0.0215235
226	0xbca8d17d	-0.020607704
227	0x3a95642f	0.0011397655
228	0x3c8b0e41	0.01697457
229	0xbc0ff20f	-0.008785739
230	0xbbdf22b1	-0.0068095555
231	0xbc4099a4	-0.011755381
232	0x3c6d48ff	0.014482736
233	0x3a81fc54	0.0009917119
234	0x3c94275d	0.018085176
235	0xbc22b01d	-0.009929684
236	0xbc5107f3	-0.012758243
237	0xbcaf395e	-0.02138966
238	0xbb514e00	-0.003193736
239	0xb9dcb1ed	-0.00042094235
240	0x3c99d6d7	0.018779201
241	0xbc1f5d8d	-0.009726894
242	0xbc9d0ef5	-0.019172171
243	0xb9240073	-0.00015640426
244	0xbc94a528	-0.018145159
245	0x3c83ae2d	0.016074264
246	0x3c9bbcbf	0.0190109
247	0x3ca74a66	0.020421218
248	0x3ca2b07d	0.019859547
249	0xbb6dabdc	-0.0036265766
250	0xbcae57de	-0.021282133
251	0x3c94744e	0.018121865
252	0xbc860ace	-0.016362574
253	0x3c6b3b8f	0.014357462
254	0x3c6ba6f7	0.014383069
255	0xbc0ec0bc	-0.008712944

0.bias f4 [2]
0	0x3758f585	1.2931768e-05
1	0x3bd3a835	0.006459261
