scene/checkpoints/resnet_101_head.pth (torch, 18405 bytes, 2 tensors)

0.weight f4 [2, 2048]
000000 f6 86 94 3d 0e 81 10 bd fd ec 9b bd ae 8a 6f 3d
       0.07252304 -0.035279326 -0.07613561 0.058481865
000010 8c 6e 21 bc df e6 c5 3c 18 25 dd 3c 2e 45 83 bc
       -0.009853017 0.02415794 0.026995227 -0.016024198
000020 de a5 a2 3b ed 2a 5f bc 87 8e 0c 3d 00 32 9d 3b
       0.0049636206 -0.013621074 0.034315612 0.00479722
000030 2d a2 e1 3d 5e 67 08 3d 64 6a b5 bd 42 eb 03 3c
       0.11017261 0.033301704 -0.08858183 0.008051695
000040 2f e8 a9 bc cc c8 05 bd 31 84 43 bc 28 67 c1 bc
       -0.020740597 -0.032662198 -0.011933372 -0.023608759
000050 b4 ed 97 bb 9a 03 2b 3d 32 47 f9 bc 67 f2 31 bd
       -0.0046364907 0.04175148 -0.030429456 -0.043444064
000060 65 1a ed bc 00 9a 9f bc b5 a4 77 bc e2 f3 87 3c
       -0.02894325 -0.019482613 -0.015114953 0.016595785
000070 84 e2 ad 3c e7 93 80 bc 16 66 8e 3c 80 6e 99 3c
       0.021226175 -0.015695525 0.017382663 0.018729448
000080 38 af c7 3c 9b b8 62 3c 98 b4 9b bc e8 4b b8 bd
       0.024375543 0.013837959 -0.019007012 -0.08998853
000090 cf 65 18 bb c3 33 e7 bc 52 f1 1d 3d b5 26 7e bd
       -0.0023254042 -0.028222924 0.03856022 -0.062048633
0000a0 51 1f 42 3c 1c 6e 95 bb a7 7b db bc 9e 0b a9 3b
       0.011848287 -0.004560245 -0.02679236 0.0051588556
0000b0 c2 95 74 3b 30 58 82 3d eb 64 3d 3d e2 b8 0d bd
       0.0037320708 0.06364477 0.04623882 -0.034600146
0000c0 3c eb 94 bc 7f 41 15 bc 23 92 9e bc d4 cf f0 bb
       -0.018178575 -0.009109854 -0.019356793 -0.007348994
0000d0 19 0a 43 bd 88 be ae bc e6 c8 40 3c 9f ed 72 3c
       -0.04761705 -0.021331087 0.011766648 0.014827161
0000e0 21 54 88 bc 08 b8 60 3d 6c aa 7b 37 66 8b 6c bc
       -0.016641678 0.054863006 1.5000445e-05 -0.014437532
0000f0 29 f2 0b bd a2 49 96 3c 37 f9 62 3d b4 d7 c3 3d
       -0.03416649 0.018345658 0.05541345 0.095626265
000100 0b 01 58 bb d7 ae b4 bc 69 09 b6 bc d8 f3 1d 3b
       -0.0032959606 -0.022056026 -0.022221284 0.002410164
000110 66 5c cb 3c 66 8a 09 bd e7 bc a5 3c 63 9b 1b bd
       0.024824332 -0.033579253 0.020231677 -0.037989985
000120 6e 25 73 3c 04 d8 85 3d 07 40 96 bc 10 9c 05 3d
       0.014840467 0.06535342 -0.018341077 0.032619536
000130 14 41 f2 bb cc 81 ad 3c f4 e0 00 3c 9d 9f 1f bd
       -0.007393012 0.021180056 0.007866133 -0.03897058
000140 a7 b9 28 bd 2c 5e 98 bc 45 3f 1e 3c 94 72 a3 3c
       -0.041192677 -0.018599592 0.009658639 0.019952096
000150 62 47 87 bc ed 88 94 bc d9 6c 93 3b 0a 34 92 3c
       -0.01651353 -0.018131698 0.0044990596 0.01784708
000160 61 e5 42 ba 75 b2 cb ba 7e 32 37 3c 13 af fd bb
       -0.0007434693 -0.0015540855 0.011181472 -0.0077418177
000170 b8 ff a0 ba d4 02 02 3c 0c 74 fc 3c 6e 0c fc 3c
       -0.0012283241 0.007935245 0.030817054 0.030767646
000180 9f 53 ac 3c 20 a1 7f bd 0f 44 d8 bc ee db ff bb
       0.021035967 -0.06240952 -0.02639964 -0.0078082
000190 6d dd 40 bc ab f1 5c 3d a1 a1 22 3d 10 14 95 3d
       -0.011771542 0.05394141 0.039704923 0.07279217
0001a0 dd 47 b7 3b f9 46 74 3c d3 a9 87 3b 19 5f 71 3c
       0.0055932836 0.014909499 0.0041401177 0.014732146
0001b0 de 1c cd bb 79 7a 50 3d e4 9f 68 3d ae 11 26 bc
       -0.0062595448 0.05089805 0.05679311 -0.010136051
0001c0 f2 dd 62 3c 0b 58 9d bc 78 bd 24 bb f9 f8 25 bd
       0.013846861 -0.019207021 -0.0025137346 -0.040520642
0001d0 9c ef 2e 3d f4 6f 31 3d d3 a9 f0 3c 4a ad 22 bd
       0.042708978 0.043319657 0.029377853 -0.039716043
0001e0 c9 8a 78 bd f8 3d 58 bd 45 b1 cf 3b bc a8 ee bc
       -0.06067923 -0.052793473 0.006338271 -0.029133193
0001f0 be f8 4e bd cc ae c8 bc 5a 18 c9 3c a3 79 45 3b
       -0.050530188 -0.024497412 0.024547745 0.0030132316
000200 8f 0e 26 3c d2 cc 9d bc 29 72 ab bc 19 80 ef 3c
       0.010135307 -0.019262705 -0.02092846 0.029235886
000210 60 0b 66 3c 7e 5d 2d bd 77 8a 41 bd 43 3a 6f 3d
       0.014040798 -0.04232549 -0.04725119 0.058405172
000220 0e 5e d1 3d 9b 48 d6 b9 db 80 a7 3c 92 38 2a 3d
       0.10223018 -0.00040871356 0.020447185 0.041557856
000230 87 3a 38 3c bb fd 8c bc 2f aa 26 bd 7c db e7 bc
       0.011244423 -0.017210832 -0.040689643 -0.0283029
000240 1d 6c c7 39 b4 15 34 bd 34 95 3e bc 08 0c e6 bc
       0.00038036788 -0.04396601 -0.0116322525 -0.028081909
000250 0e 70 0d 3c e6 a5 0d bc 5c f7 2a 3d 13 a7 a2 3d
       0.008632673 -0.00864551 0.041739807 0.07942023
000260 25 67 08 3d 9f 69 a4 bd 79 aa 02 bc d2 60 c9 3b
       0.03330149 -0.08027958 -0.007975214 0.006145575
000270 ab dd 92 3d c7 a6 0e bd 8f a0 a0 bc 45 4f 8b bb
       0.07171186 -0.03482702 -0.01960781 -0.004251393
000280 28 91 5f 3c 5a 72 c3 bd d5 74 f1 bb 17 f8 b8 bc
       0.013645448 -0.09543295 -0.007368664 -0.022579236
000290 60 76 0a bc 25 47 80 3c b5 3d 67 bd 82 c7 87 3d
       -0.008451074 0.015658924 -0.056455333 0.0662985
0002a0 08 ba 26 bd bb 68 ea bc a9 8b db bb 40 92 58 3c
       -0.040704757 -0.028614393 -0.0066999984 0.0132184625
0002b0 21 05 24 3d 83 3d 2a 3d 8c d2 ca bc 57 52 40 3c
       0.040043954 0.04156257 -0.0247586 0.011738381
0002c0 0b 32 d2 3a b9 3e 63 3c 3f ed 8c ba 14 0b 57 bd
       0.0016036642 0.013869935 -0.0010751857 -0.0525008
0002d0 b5 77 13 bd d1 0b a4 ba 8d 57 87 bc b4 09 92 bc
       -0.036002833 -0.0012515729 -0.01652124 -0.017826892
0002e0 16 51 ff bc 14 c6 fc bc 85 d5 3a 3d 98 f8 4a 3d
       -0.031166594 -0.03085617 0.045613784 0.049553484
0002f0 44 14 98 3c 46 8d 9a bc f2 b1 8a 3a e2 4c e7 bc
       0.01856435 -0.018866193 0.0010581596 -0.028234903
000300 0f de 83 3b 35 98 0d bb 56 55 70 3c 06 58 27 bd
       0.004024274 -0.0021605615 0.014668783 -0.04085543
000310 4f c1 35 3d 76 4a b9 3c 83 81 c3 3c 72 7b 02 3c
       0.044373807 0.022618514 0.023865467 0.007964002
000320 31 1c 69 3b 65 56 a0 3c 9c 7a 6c bd cb 82 29 bd
       0.0035569782 0.019572446 -0.057734117 -0.0413845
000330 77 ec 04 3d 19 2c 8f 3c e0 a3 8d bd 85 cd 7c bd
       0.032452073 0.017477082 -0.06916022 -0.061719436
000340 4b 70 58 3c ce 31 52 3b de 9e 4d b9 d6 07 22 3d
       0.0132103665 0.0032073143 -0.00019609506 0.039558254
000350 26 a6 2e bd d2 48 6b 3c 27 0a 15 3d bf ae 51 3d
       -0.04263892 0.014360623 0.036386635 0.05119204
000360 c1 92 0a bd 01 1f 09 bc 92 11 6d 3c 96 52 7a 3c
       -0.03383136 -0.008369208 0.014469521 0.015278479
000370 71 37 be bc db 4c 68 3c a8 27 15 bc 69 91 88 bd
       -0.023219796 0.01417848 -0.009103693 -0.0666836
000380 a3 14 ab bc d4 91 85 3c 93 7f 9e bb 12 a0 fc 3c
       -0.020883864 0.016304888 -0.0048369854 0.030838046
000390 95 17 64 3c 8c ac 26 3d 06 61 9c 3b c2 8c 4e 3d
       0.013921638 0.040691897 0.0047723083 0.050427206
0003a0 2e 92 ee bb 64 1d 78 bb 79 da ac 3b 6a 45 4d 3b
       -0.0072806096 -0.0037859315 0.0052750674 0.0031321892
0003b0 21 fe 36 3b 95 b3 4c 3d 63 6b 51 3d 09 db 6a 3c
       0.0027922469 0.04997595 0.051127803 0.014334449
0003c0 2f 92 74 3c ea 91 80 bd 62 7c 73 bd 93 81 0d 3d
       0.014927431 -0.06277831 -0.059444793 0.0345474
0003d0 30 31 f4 3b 3b 45 ff bd 19 d4 a6 3b 8e c5 ce 3c
       0.0074521527 -0.124643765 0.005091202 0.025240686
0003e0 9f 64 89 bd 8c b2 7a bd ab 34 3a 3c 52 02 64 bc
       -0.06708645 -0.06120543 0.011365096 -0.013916569
0003f0 ad 79 a1 3c 5b 2b e1 3b 4f e3 dd bc 45 71 95 ba
       0.01971134 0.0068716235 -0.027085928 -0.0011401555

0.bias f4 [2]
000000 84 b4 45 3d 98 9b 5a bc
       0.048267856 -0.0133427605
