scene/checkpoints/resnet_baseline_head.pth (torch, 18445 bytes, 2 tensors)

0.weight f4 [2, 2048]
00000000: 30df 92bb b62b 21bd f656 6f3d 1b30 5d3d
00000010: 5ca6 69bb f45b 4e3d 499c ddbb c7ce f53c
00000020: 08be 90bc bfc3 6f3d 55fb 4b3d 4a41 ed3c
00000030: 1f18 e03c c027 08be b9a9 bebc 6fab 80bc
00000040: adeb 2a3d 69dd 413c 5609 dfbc 84d2 9b39
00000050: 7f66 24bd 2052 a63d 80f4 7f3d 81cb 813d
00000060: 2ff9 a2bb 24b5 ab3c de5a 6bbd 6099 d8bb
00000070: d8fa 933c 2df8 2abc f906 ca3c 3667 603c
00000080: 8cef 2fbc 3018 96bd 0dd2 d3bc 7818 3a3d
00000090: 75c0 b3bc c261 733d aca9 86bc 7ca2 133d
000000a0: 5afd 1ebc b1d2 5a3d 8eec 4abd 325e ea3c
000000b0: 144f 1dbd cfc7 da3c e9f0 b23b a166 b3bc
000000c0: 7a16 0b3c bc47 b43d eb89 7ebd 8db2 8abd
000000d0: a3d9 893a fb76 c03b b36d 853d ae9c 87bd
000000e0: 17a1 373d a3c1 b33d 9b0d 58bd 215b b23d
000000f0: 5e8f cf3d ce74 ebbb ca6a d53b 578f 6fbb
00000100: b6bf 483d 4b9c 463d c447 32bc ff95 dfbd
00000110: cc0c 03bd b2e2 703d 08d2 1bbc e5aa 823d
00000120: 68d2 493d 86b0 5b3d 46f0 81bd 1550 f0bc
00000130: 6a0d 2b3d e00b 3b3d cd89 c8bc cc92 d4bc
00000140: c0b4 f8bc 0b3f dbbd 7eb9 61ba fcb3 6ebd
00000150: 4a09 20bd 1c43 433d 73a8 d83c f3d2 273d
00000160: c4e6 98bc 6b3c e5bd c72b 373c fc89 06be
00000170: c160 0abe 52fa 2b3b 8567 b93d c40d 513e
00000180: b739 903d 2390 e9bc b326 9e3d 4908 a03d
00000190: 71ba 763d a1f0 1abd f7ac b4bd fdff 8cbb
000001a0: 361c 9e3d 49aa 58bb b689 edb9 5eb4 343d
000001b0: 3b1a 92bc 44e8 0b3d 070a b1bd bac7 d13d
000001c0: 3c84 713c 7a6e 5fbd 1915 133d 2fed c03c
000001d0: 7f79 aabc 628c de3d 8176 e4bc 5059 d93d
000001e0: b250 693d 0ae0 a3bc 57b6 cabd 550b a93d
000001f0: 1a69 80bd 59c8 af3c 364f 9f3d b992 c1bd
00000200: 3c5a d33d e9cf 923d 64c2 643d a152 473d
00000210: 6412 55bd 3b29 f3bd de2e 43bd c67d 85bd
00000220: a713 a0bc 0dde 02bd 6a14 7e3d 9e7c 03bc
00000230: 37ea 9fbc 081e c9bc 285b ef3c 56b1 9dbd
00000240: 5981 c3bc c627 603b f2ac f8bb 69b9 fb3c
00000250: 8d02 e4bc b02a 4db9 86bf cebd eff5 8a3b
00000260: 1652 ffbb 0cc4 7a3c 4387 85bd ca6b d4bc
00000270: 7c4a 20bd 5b1d 10be 132e e63c ca82 a4bd
00000280: 56a5 8f3c 5c0d 3bbd f13d da3c 51b4 d03c
00000290: c451 6fbc a2b7 aebd 11da 833d 4613 813d
000002a0: 366c 303d 15ef 9d3d 25da 05bd 0d38 be3d
000002b0: 329c 2f3d 7013 d8bb 5def 1a3d 54a8 583d
000002c0: 4a71 cbbd f351 9a3c 063b 0ebc 214f 8e3d
000002d0: 531d 83bd b459 20bd d165 743d f1c9 e8bc
000002e0: 1cf0 18bc f07c 853c 901a 3abd 32db ca3a
000002f0: 522a 223d ec4d 80bc c75c b63d b461 d93c
00000300: 5056 703d a904 f4bb 41d9 6bbc abe3 f23c
00000310: f80f e23b 22af 6c3d bee4 c63d f27a a03d
00000320: 00a4 023d 94af 3f3d d28d 5e3c 106e 22ba
00000330: b0d1 c23c 6fe8 013c 7330 a33d 4f2d 34bd
00000340: 1829 cf39 1dc0 efbb 921a c43d f8ed 203c
00000350: ac43 3a3b 147f 9fbd cbd7 143d c110 413d
00000360: 6f34 003e df35 653c a105 e13c 6860 47bd
00000370: 43af 533d 2958 6dbd b771 a7bd 429b 023d
00000380: a5d0 2c3c 412a 7ebc ea66 1c3c 0c5b bcbd
00000390: 44fe b3ba 478d 873b 3588 febc 450a 48bd
000003a0: dbf3 4abd 1b47 563b 9307 17bd bd98 2b3d
000003b0: 139e 9a3c c1f8 02bb 7fa0 353c 4180 dc3c
000003c0: db06 863d 6f13 153d b9a3 72bd c5a8 c63c
000003d0: 4e7e 6c3d b5db 99bd a7d0 8c3b 14aa 533c
000003e0: 0619 2c3d be7e c3b9 992a d53b 4b64 ddbb
000003f0: e917 843c 1d7d 1e3d 4a3b bb3b 9733 3a3c
-0.0044821724 -0.039348327 0.05843254 0.054000955 -0.0035652136 0.050380662 -0.0067630154 0.030005826
-0.017668739 0.058536287 0.049800236 0.028961796 0.027355252 -0.13296413 -0.02327429 -0.015706746
0.041728664 0.011832573 -0.027226131 0.0002972075 -0.04013681 0.08121133 0.062489033 0.063376434
-0.0049735527 0.020960398 -0.057459705 -0.0066100806 0.018063948 -0.010435146 0.024661528 0.013696482
-0.010738265 -0.07328832 -0.025856996 0.04543349 -0.021942357 0.0594194 -0.016438328 0.03604363
-0.009703958 0.053423587 -0.049542002 0.028609369 -0.038405493 0.026706604 0.0054608476 -0.021899523
0.008489246 0.08802745 -0.062143248 -0.06772337 0.0010517131 0.0058735586 0.06515064 -0.06621681
0.04483136 0.08777168 -0.05274735 0.08708788 0.10134767 -0.007185555 0.0065129744 -0.0036553943
0.049010955 0.048488896 -0.010881368 -0.10917281 -0.031994626 0.058809943 -0.009510525 0.06380252
0.049272925 0.053635143 -0.06344657 -0.029335061 0.04176084 0.04566562 -0.024479771 -0.025948904
-0.030359626 -0.10705384 -0.00086107093 -0.058277115 -0.03907136 0.047671422 0.02644751 0.04097266
-0.018664725 -0.111931644 0.011179871 -0.13138574 -0.13513471 0.0026241732 0.09052948 0.20415407
0.07042258 -0.028511113 0.07722225 0.0781408 0.060236398 -0.037827138 -0.08822053 -0.004302977
0.077202246 -0.0033060482 -0.00045306765 0.044117324 -0.017834773 0.034157053 -0.08644491 0.10243173
0.014741 -0.054548718 0.035908792 0.023550598 -0.020809887 0.1086662 -0.027888538 0.10612738
0.056961723 -0.020004291 -0.0989806 0.082541145 -0.062700465 0.021457838 0.0777878 -0.09451813
0.10319945 0.07168562 0.055849448 0.048662785 -0.05201949 -0.118730985 -0.047652118 -0.0651813
-0.019540621 -0.031950045 0.062031187 -0.0080253165 -0.019520862 -0.024550453 0.029218271 -0.0769984
-0.023865389 0.0034203394 -0.007588976 0.030728059 -0.027833248 -0.00019566226 -0.10095124 0.0042407434
-0.007791768 0.01530553 -0.0651994 -0.025930304 -0.039133534 -0.14073698 0.028098142 -0.080327585
0.017534893 -0.045667037 0.026640864 0.025476607 -0.014606897 -0.08531119 0.06438077 0.06302504
0.043071948 0.07711617 -0.032678742 0.092880346 0.04287357 -0.006594114 0.03782593 0.052894905
-0.099337175 0.018837905 -0.0086810645 0.069486864 -0.064020775 -0.039148048 0.059667412 -0.028416606
-0.00933459 0.016294926 -0.04543549 0.0015476702 0.03959114 -0.015662156 0.089044146 0.026535846
0.058676064 -0.0074468446 -0.014395059 0.029649576 0.0068988763 0.057784207 0.09711598 0.0783595
0.031894684 0.046798304 0.013583617 -0.000619621 0.023781627 0.007928952 0.07968225 -0.043988522
0.00039512734 -0.007316603 0.095753804 0.009822361 0.0028421683 -0.0778791 0.03633861 0.04713512
0.12520002 0.013989895 0.027468504 -0.048675925 0.051680814 -0.057945404 -0.08175986 0.031886347
0.010547792 -0.015513004 0.009546021 -0.09197053 -0.0013732393 0.0041367146 -0.031070808 -0.04883792
-0.049548965 0.003269619 -0.036872458 0.04189371 0.018874204 -0.0019984695 0.0110856285 0.026916625
0.06544276 0.036395486 -0.05923817 0.024250397 0.05773764 -0.07512609 0.0042973342 0.012918968
0.04201605 -0.0003728773 0.006505322 -0.0067563406 0.016124683 0.038693536 0.005713855 0.011364839

0.bias f4 [2]
00000000: ed81 01bb 279c 633c
-0.001976128 0.01389221
