notebooks/scene/checkpoints/generic_head.pth (torch, 18381 bytes, 2 tensors)

0.weight f4 [2, 2048]
-0.022090528 0.0134012 0.0058027324 0.021196635 0.019774105 -0.019122424 -0.006855944 0.016684342
-0.023551429 0.007846612 0.0053644204 -0.010401703 0.020184506 -0.038248785 0.008896846 -0.007999925
0.0101827 0.0023081386 0.0060768574 -0.03884001 -0.003548031 -0.010885501 -0.024472063 -0.00607309
-0.000604628 0.009304408 0.0010810416 -0.020275587 0.0011314284 -0.013620732 0.005952511 -0.020259822
0.022596503 -0.03832954 0.0093789175 0.025647225 0.017912528 -0.008782593 0.019020757 0.0008628698
-0.022439243 0.009293425 0.016085066 0.0074684117 -0.015089801 -1.1227477e-05 -0.0033438525 0.0075725154
0.04229678 0.005753608 -0.0015415372 0.0037843534 0.0077226553 -0.028933985 0.035449542 -0.03796875
0.012757761 0.030499319 -0.030576302 0.017173111 0.03352826 -0.0059447377 0.00061643386 -0.025126306
0.024427954 -0.0017548488 -0.024931574 -0.025633872 0.012996609 0.010381584 -0.0038034404 0.008312576
0.004740374 0.026969712 0.005968358 0.011636255 -0.018522367 0.014768283 -0.025663113 0.009890844
0.036619887 0.005110952 -0.02650209 0.00073281565 -0.004841757 -0.007977469 0.032012116 -0.019653177
0.018353144 -0.028396178 0.018845353 0.0027637144 -0.01140843 0.02123158 0.03049302 0.051115166
0.062322795 -0.016420174 0.0062280116 0.009219656 -0.005852051 0.016856879 0.010958357 0.0263698
-0.030094896 -0.01902038 -0.008522745 0.010870563 -0.015586586 -0.010143201 -0.024206204 0.02332853
-0.019933058 -0.02609811 -0.012995263 -0.020590948 0.017475918 0.007664716 -0.016435118 0.0050334055
0.010684272 0.030084647 -0.017510429 0.030926425 -0.014626544 -0.026374687 -0.014055402 0.029149419
-0.0069181104 0.00021810152 -0.0012427069 -0.007456247 -0.018190632 -0.009584733 -0.012829972 0.022555003
-0.014943889 -0.010022531 -0.012697036 0.025661066 0.021395117 -0.03170459 -0.010099687 0.019695776
-0.02541002 0.017735729 -0.017093647 -0.03215426 -0.020484293 -0.009120482 -0.048268363 0.025390066
0.021445118 0.034526058 0.015785713 -0.014025704 -0.03556383 -0.00026182545 0.030092536 -0.008306819
0.0017088457 -0.0063474593 -0.014900579 -0.0061515262 -0.007392386 -0.000695634 -0.01514945 -0.019958181
-0.0012507575 0.007338824 -0.015492631 0.024708591 0.0006029562 0.01095546 -0.008947258 0.005503662
0.008497062 -0.011282362 0.02625979 -0.038067628 0.009968024 0.00023898794 0.001373084 0.032517806
0.018581277 0.0035770687 -0.00019202469 0.021174 0.036494445 -2.6884527e-05 -0.007800232 -0.027418964
-0.025421463 -0.0010858668 0.004959818 -0.022419712 0.038953636 0.014675304 0.037093982 0.026310239
0.010702458 0.010759849 -0.014809569 -0.016238375 0.00494015 0.00014027032 0.042659238 0.0122088045
-0.025292149 -0.008821429 0.0122578 0.026547354 0.01854402 -0.013154837 -0.026262064 0.007081978
0.011269931 0.015239773 -0.0031979887 -0.017449059 -0.011991886 -0.0063426653 -0.011921122 0.012306054
0.027385484 0.0018489872 -0.0108153075 -0.013933515 0.0033300265 0.021699097 -0.01909717 0.014348336
0.00089093007 0.009760011 0.003169073 0.02826526 0.019268144 0.033595085 0.030844692 0.03333901
0.0101681445 -0.0025873359 -0.023820955 -0.0020370223 0.05392351 0.01586286 -0.009068886 -0.013783716
0.0015251642 0.025156531 -0.03849489 0.011296278 0.007669708 -0.018491887 -0.02190274 0.022543378
00000000: 32f7 b4bc b590 5b3c d924 be3b 91a4 ad3c
00000010: 4efd a13c a1a6 9cbc d4a7 e0bb 9aad 883c
00000020: edee c0bc 138f 003c 05c8 af3b e86b 2abc
00000030: fa59 a53c c2aa 1cbd 14c4 113c 1e12 03bc
00000040: 57d5 263c 2444 173b 6020 c73b b416 1fbd
00000050: 1586 68bb 1a59 32bc a379 c8bc c500 c7bb
00000060: e67f 1eba 8471 183c bdb1 8d3a fd18 a6bc
00000070: 704c 943a 7e29 5fbc 480d c33b edf7 a5bc
00000080: 4d1c b93c 70ff 1cbd 08aa 193c 211a d23c
00000090: 4bbd 923c dde4 0fbc 6bd1 9b3c 3632 623a
000000a0: 81d2 b7bc 7343 183c d4c4 833c 94b9 f43b
000000b0: 363b 77bc a65d 3cb7 8924 5bbb dd22 f83b
000000c0: 633f 2d3d c388 bc3b 680d caba ea02 783b
000000d0: 540e fd3b f706 edbc 8a33 113d 1f85 1bbd
000000e0: ee05 513c b5d9 f93c 277b fabc a0ae 8c3c
000000f0: ee54 093d 13cc c2bb 2d98 213a afd5 cdbc
00000100: 221d c83c f402 e6ba 4d3d ccbc 20fe d1bc
00000110: bbef 543c 8517 2a3c 2443 79bb 7931 083c
00000120: 2455 9b3b 96ef dc3c 3792 c33b fea5 3e3c
00000130: 38bc 97bc abf6 713c 733b d2bc 350d 223c
00000140: bcfe 153d c679 a73b e91a d9bc 6d1a 403a
00000150: 9aa7 9ebb eeb3 02bc 231f 033d b3ff a0bc
00000160: 5559 963c 1a9f e8bc 9261 9a3c 6f1f 353b
00000170: 6cea 3abc daed ad3c 7fcc f93c 235e 513d
00000180: 3046 7f3d 9a83 86bc 5914 cc3b 0a0e 173c
00000190: 90c2 bfbb 7017 8a3c ae8a 333c 7b05 d83c
000001a0: 9289 f6bc a1d0 9bbc fca2 0bbc 721a 323c
000001b0: e15e 7fbc ab2f 26bc 174c c6bc 791b bf3c
000001c0: a74a a3bc b4cb d5bc 15ea 54bc 59ae a8bc
000001d0: a829 8f3c 4c28 fb3b f1a2 86bc 44ef a43b
000001e0: 160d 2f3c 1474 f63c 0872 8fbc 6a59 fd3c
000001f0: 2ca4 6fbc ba0f d8bc a148 66bc c3ca ee3c
00000200: 51b1 e2bb 2eb2 6439 53e2 a2ba 8953 f4bb
00000210: 8504 95bc 4909 1dbc ce34 52bc 45c5 b83c
00000220: 37d7 74bc 8b35 24bc 3b07 50bc 2837 d23c
00000230: d044 af3c acdc 01bd 2879 25bc 0959 a13c
00000240: ad28 d0bc 854a 913c fa07 8cbc 2fb4 03bd
00000250: adce a7bc 136e 15bc 0cb5 45bd d4fe cf3c
00000260: acad af3c 326b 0d3d 0a51 813c 11cc 65bc
00000270: 61ab 11bd 9e45 89b9 9f84 f63c 5319 08bc
00000280: 59fb df3a 59fe cfbb 8f21 74bc be92 c9bb
00000290: d43b f2bb 355b 36ba 6635 78bc 577f a3bc
000002a0: 75f0 a3ba 857a f03b ced4 7dbc ac69 ca3c
000002b0: b50f 1e3a 887e 333c 8597 12bc 1058 b43b
000002c0: 4337 0b3c a8d9 38bc c51e d73c cdec 1bbd
000002d0: ec50 233c d698 7a39 0ef9 b33a 6431 053d
000002e0: c337 983c 416d 6a3b 3c5a 49b9 1975 ad3c
000002f0: 337b 153d 1586 e1b7 1799 ffbb bc9d e0bc
00000300: ac40 d0bc a553 8eba f885 a23b 8ba9 b7bc
00000310: d98d 1f3d b070 703c dcef 173d 9288 d73c
00000320: 5d59 2f3c 144a 303c d6a3 72bc 5706 85bc
00000330: fbe0 a13b 8715 1339 74bb 2e3d 7007 483c
00000340: 7b31 cfbc c187 10bc f1d4 483c d679 d93c
00000350: a1e9 973c 6387 57bc 8a23 d7bc f00f e83b
00000360: 84a5 383c 3eb0 793c 5995 51bb 54f1 8ebc
00000370: 9e79 44bc 22d6 cfbb cf50 43bc 559f 493c
00000380: 8657 e03c b759 f23a b032 31bc 6649 64bc
00000390: 933c 5a3b 4ec2 b13c ab71 9cbc 4815 6b3c
000003a0: 4e8d 693a 74e8 1f3c 39b0 4f3b 8c8c e73c
000003b0: 3ad8 9d3c 009b 093d 02ae fc3c 7c8e 083d
000003c0: 4a98 263c 4b90 29bb 2a24 c3bc 907f 05bb
000003d0: e6de 5c3d d4f2 813c aa95 14bc 18d5 61bc
000003e0: 05e8 c73a 1215 ce3c d1ac 1dbd 0614 393c
000003f0: 2d52 fb3b 4c7c 97bc 606d b3bc e4ac b83c

0.bias f4 [2]
0.027853968 0.015018574
00000000: 012e e43c 7710 763c
