notebooks/checkpoints/dinov3_baseline_head.pth (torch, 8205 bytes, 2 tensors)

0.weight f4 [2, 768]
-0.009671291 0.014968437 0.03204412 -0.0057294443 0.017356256 0.003867308 0.014344864 -0.002973746
0.030193623 2.0046615e-05 0.0122678615 -0.0042944276 0.024201263 0.009510572 0.011628263 0.00674154
0.010888279 0.0067071156 -0.007449503 0.0077648475 0.00059932325 0.008443451 -0.02395144 0.016691603
-0.020683836 -0.004759295 0.026594438 0.006356402 -0.0072909705 -0.0008993907 0.01846675 -0.041890208
-0.012520577 0.0017882086 -0.021507343 0.011593761 0.039788518 -0.011551677 0.013016236 0.028058266
0.025241062 -0.004514235 -0.018260485 -0.01938585 -0.032039244 -0.0071171103 0.030077543 0.0064582243
-0.011319491 0.0024116684 -0.026360342 -0.0057316422 0.019274471 -0.00710121 0.0039202706 0.035762195
-0.004772309 -0.009194569 -0.03218196 -0.010403639 0.043800395 0.023581812 -0.028607566 0.011937366
-0.01755844 -0.011103732 0.01134934 -0.008025967 0.01563034 0.003019793 -0.005109653 0.013672892
0.011138909 0.005238737 -0.028150294 0.04357131 -0.033215407 0.020281194 -0.01820596 -0.011491934
-0.020945849 0.010335978 0.010040048 0.009864175 -0.023959097 0.034305725 -0.025656205 0.0033119796
0.0048217066 0.017600583 -0.019804196 0.008175746 -0.017128376 -0.009790784 -0.026269156 -0.028915104
-0.01993568 -0.000358351 -0.008501501 0.01886845 0.0065558986 -0.0019012169 -0.024425687 -8.284526e-05
0.022795362 -0.018255968 0.013378981 0.0024810366 0.0098065585 -0.010680057 0.033935167 0.024395203
0.03315599 -0.028720358 -0.008853507 0.02335919 -0.009650083 0.015895123 0.020534541 0.01187218
-0.0033106792 -0.03166125 0.003406166 0.0044066277 0.02088008 0.012034028 -0.029653305 0.019058222
-0.029494569 -0.024174044 -0.013932701 0.007950095 -0.014170049 0.0033921043 -0.0072984234 -0.016747626
0.022497255 0.02523104 0.029210666 -0.0074690115 -0.023644246 0.013923183 0.011414268 0.024971135
0.0055267103 -0.010427476 -0.023024857 -0.00712487 -0.019420154 0.01308484 0.04098737 -0.007564545
-0.00033173675 0.023584835 8.852538e-05 -0.03495381 -0.010780063 -0.018938603 0.0030112355 -0.014956041
0.018510746 -0.02751291 0.007737047 -0.01197702 0.021157624 0.007421272 0.012659555 0.036343172
0.012460701 -0.0015515914 0.006847179 0.0034586843 -0.006625599 0.0036800494 -0.017398614 0.03331798
-0.027896287 -0.0115819145 0.00029203168 0.023040995 0.03369032 -0.03760828 -0.0017156663 -0.022312744
-0.007359395 -0.014903103 0.0027536592 0.0015118051 -0.013587825 -0.02176797 -0.032519095 0.028268373
0.02802102 -0.009281959 0.023447895 -0.034977533 -0.016716128 -0.0054542236 -0.017791111 0.0039708572
0.03756049 -0.02668287 0.018527249 -0.01534698 0.025394399 0.01371713 -0.0021800755 0.012535371
0.034076978 0.006381095 -0.00828116 0.00584487 -0.007996571 -0.01391069 -0.0011710138 -0.020963365
-0.03623528 0.0092910705 0.0023595183 0.02785953 -0.035313312 -0.0059699584 0.011845388 -0.001789954
-0.030657765 -0.009824831 -0.036397696 -0.017502869 -0.032365758 -0.024205314 -0.006756324 -0.0068184645
0.023572339 0.024307797 0.029914752 0.0013503649 0.026864516 0.02569486 0.013253265 0.011320348
-0.0022696503 0.02506572 -0.023365358 0.00066607684 0.02899458 -0.012417265 -0.031469434 -0.016526336
0.00712665 -0.0030151696 -0.024063278 -0.0028125711 -0.00022171668 0.0003317004 -0.0115692215 0.02971776
00000000: 5674 1ebc 2d3e 753c b240 033d 10be bbbb
00000010: b52e 8e3c a972 7d3b b806 6b3c 2ee3 42bb
00000020: 9e58 f73c c729 a837 24ff 483c 45b8 8cbb
00000030: ba41 c63c 3bd2 1b3c 7884 3e3c 23e8 dc3b
00000040: c164 323c 5dc7 db3b f61a f4bb 4370 fe3b
00000050: e71b 1d3a 6656 0a3c cf35 c4bc d4bc 883c
00000060: 2671 a9bc dcf3 9bbb 94dc d93c 5d49 d03b
00000070: 18e9 eebb 17c5 6bba 9547 973c 1195 2bbd
00000080: 1b23 4dbc 5362 ea3a 2b30 b0bc c2f3 3d3c
00000090: 49f9 223d 3f43 3dbc 0d42 553c 73da e53c
000000a0: 58c6 ce3c 26ec 93bb 0397 95bc 13cf 9ebc
000000b0: 953b 03bd a636 e9bb 2e65 f63c 839f d33b
000000c0: 6375 39bc 150d 1e3b a5f1 d7bc 80d0 bbbb
000000d0: 7fe5 9d3c 44b1 e8bb 9d75 803b 617b 123d
000000e0: 0861 9cbb d1a4 16bc 3bd1 03bd 0674 2abc
000000f0: 0b68 333d a52e c13c 6a5a eabc f194 433c
00000100: b8d6 8fbc 6dec 35bc 95f2 393c 587f 03bc
00000110: 330b 803c b8e7 453b e06e a7bb 4404 603c
00000120: f87f 363c b6a9 ab3b 729b e6bc d477 323d
00000130: e10c 08bd bf24 a63c aa24 95bc aa48 3cbc
00000140: a196 abbc 3c58 293c 037f 243c 599d 213c
00000150: de45 c4bc 2984 0c3d f62c d2bc cc0d 593b
00000160: 68ff 9d3b 192f 903c 693c a2bc 90f3 053c
00000170: cf50 8cbc 8669 20bc 6a32 d7bc 5edf ecbc
00000180: 2750 a3bc 0fe1 bbb9 e149 0bbc 0292 9a3c
00000190: ddd2 d63b 4132 f9ba 6118 c8bc 36bd adb8
000001a0: 57bd ba3c 8a8d 95bc 8333 5b3c e398 223b
000001b0: b0ab 203c 68fb 2ebc 9aff 0a3d 73d8 c73c
000001c0: 93ce 073d f546 ebbc 4d0e 11bc c65b bf3c
000001d0: 621b 1ebc 7d36 823c 0e38 a83c 8883 423c
000001e0: fbf7 58bb 3aaf 01bd fc39 5f3b 7965 903b
000001f0: b40c ab3c 5f2a 453c 7deb f2bc fd1f 9c3c
00000200: 989e f1bc a508 c6bc fc45 64bc 1e41 023c
00000210: 7e29 68bc 114e 5e3b 9d27 efbb 5132 89bc
00000220: 2a4c b83c 53b1 ce3c 354b ef3c 9cbe f4bb
00000230: 94b1 c1bc 101e 643c e902 3b3c 4490 cc3c
00000240: 6819 b53b 01d8 2abc a09e bcbc be77 e9bb
00000250: 0417 9fbc cc61 563c 5fe2 273d 01e0 f7bb
00000260: f4ec adb9 fc34 c13c b4a6 b938 ba2b 0fbd
00000270: dd9e 30bc 2125 9bbc 2658 453b 2f0a 75bc
00000280: d9a3 973c c162 e1bc 0e87 fd3b 433b 44bc
00000290: c152 ad3c 242e f33b 066a 4f3c 94dc 143d
000002a0: f827 4c3c c55e cbba 4d5e e03b 18ab 623b
000002b0: 8e1b d9bb fc2c 713b 8a87 8ebc 6f78 083d
000002c0: c186 e4bc 12c2 3dbc d41b 9939 78c0 bc3c
000002d0: dcfe 093d 240b 1abd 35e0 e0ba 37c9 b6bc
000002e0: 1427 f1bb 252c 74bc bc76 343b c327 c63a
000002f0: 789f 5ebc be52 b2bc be32 05bd 1393 e73c
00000300: 578c e53c 5c13 18bc cd15 c03c 9a44 0fbd
00000310: 43f0 88bc 58b9 b2bb aabe 91bc f71d 823b
00000320: 07d9 193d 0996 dabc 75c6 973c e671 7bbc
00000330: ea07 d03c d0bd 603c 99df 0ebb 2861 4d3c
00000340: 4d94 0b3d 8118 d13b b4ad 07bc 5386 bf3b
00000350: 0d04 03bc aae9 63bc b47c 99ba 5dbb abbc
00000360: 726b 14bd 9339 183c 26a2 1a3b ab39 e43c
00000370: b1a4 10bd a49f c3bb 2913 423c e49c eaba
00000380: fe25 fbbc 54f8 20bc c015 15bd 2d62 8fbc
00000390: f591 04bd 394a c6bc 2764 ddbb 6d6d dfbb
000003a0: c71a c13c 2521 c73c c80f f53c bafe b03a
000003b0: f912 dc3c 077e d23c 3924 593c fb78 393c
000003c0: 6abe 14bb a056 cd3c b568 bfbc a99b 2e3a
000003d0: 0b86 ed3c c971 4bbc 18e6 00bd 3d62 87bc
000003e0: ac86 e93b 279a 45bb 5a20 c5bc 1d53 38bb
000003f0: 9e7c 68b9 13e8 ad39 d58c 3dbc a972 f33c

0.bias f4 [2]
-0.03079714 -0.010875874
00000000: 494a fcbc b930 32bc
