notebooks/checkpoints/dinov3_head.pth (torch, 8133 bytes, 2 tensors)

0.weight f4 [2, 768]
00000000: de58 c1bc 25b9 f438 199a c33c 5597 003c
00000010: 08a6 56bc 6918 113c 61f6 013d 1b9c 0c3c
00000020: 00a2 a2bc 945c 953a 0ead 953c 388a 9e3b
00000030: 3b09 6a3a 0fbf 4aba 1481 da3c cf24 98bc
00000040: 209f 223d 1258 9e3c 9aec 043d b7ad 78bc
00000050: 1ae8 ffbc 504e ca3c 7e9a b6bb 231f 11bd
00000060: e752 9ebc 7312 dc3c f9d9 f13c a4d5 ccbc
00000070: ee5d 5abc 39e8 10bd 0df6 9c3c 304b d73b
00000080: 3ca2 373c faf7 acbc 8aad e3bc fcff 27bc
00000090: f620 653c f568 4ebb 4274 dfba ddd1 29ba
000000a0: 6ca3 123c 2edf c5ba 62fb c33c 56ab 83bc
000000b0: dbbd 02bd 1263 133c c1db ccbc 6e8b 063d
000000c0: e40d 18bd 0d68 c0bc 9a5f 993b a323 113b
000000d0: 23e7 0a3b 3c5c 8dbb 4c5a 58bb 5874 fc3b
000000e0: 76ed b93c c36c aebc fc90 bbbc d61d 9b3c
000000f0: 4946 cf3b ac4b b43c d0a1 1f3b 9c0c a73c
00000100: c34f 833c 3b51 c9bc 6a9d f9bc b979 0f3b
00000110: c3cd 1a3d 3c89 313b ff35 d83c 5493 45bc
00000120: 4dcd 783c 7ccd f23c 68e7 80bc 7ee3 8b3b
00000130: b60c 07bd 3341 02bd 68b8 20bc 777a 43bc
00000140: d93f f03c 16dc 9cbc eb91 0bbd e6d0 febc
00000150: 5cd5 9e3c 81e3 01bc 63c2 b13b b74a a0bc
00000160: 3910 bf3b 2bc7 dbbc 1150 4cbb b4c1 c539
00000170: 5f55 efbb 8b50 823b 1a4a 433c f27b c53c
00000180: 639b 063c f2e3 a83c bce5 f13c 9ad8 c3b9
00000190: 5c7e 9fbc eda3 01bb 86a0 b13c 717e 993c
000001a0: b11a 86bc 95ec 1cbc e797 fd3c ec79 f7bc
000001b0: 899f 243d 3773 39ba b2f4 1e3c 12b8 0a3d
000001c0: d831 e73c 9b6b f13c 4829 08bd b1b6 eebb
000001d0: 5721 a23c d64d 773c 2228 ca3c 30ac 553c
000001e0: 7736 06bd 016a 083d 6828 3b3b 5ef8 e7bc
000001f0: 5209 c43c 6486 db3c b6e8 8a3c 1702 333c
00000200: 5f09 053d 01be a73c 6788 02bc dc11 b33c
00000210: 8afe 2d3c 6991 fdba 2da1 e9b9 9325 cbbc
00000220: 1651 9cbc 70d4 eb3c a563 75bb 193a 1d3c
00000230: e20d 0c3c c469 acbc d713 f4bb 0958 8e3c
00000240: 5ea6 b33c f279 233c f1f6 b2bc 3095 513c
00000250: b46c c0bc e84f 61bc cef3 fb3b 849e 8dbc
00000260: 8500 a83c 4a74 173d bea2 25bc dc33 ee3c
00000270: 978a 853c 2899 ac3c 5772 843c 4cad a63c
00000280: 0023 833c ebf6 dcbc 570f 24bc c135 51bc
00000290: af30 f3bc 34dd 0abc ace2 b43b 5671 163d
000002a0: 971b 5a3b 2b82 363c dc99 863c 7f20 6b3c
000002b0: b2e1 b73b f489 e4bb 1af6 2c3c 546b 83bc
000002c0: 3ce2 46bc b8ea e33c 7095 9c3c 3f34 b23c
000002d0: b375 163c 98da df3a c527 b9bc f9ef fabb
000002e0: 1689 f4bc 9c3a b0bc 3e10 86bc 54f5 8a3c
000002f0: 5d82 a7bc 9bcf bd3c d44a 3fbc 6925 8ebb
00000300: 322d 05bc f0b7 773c a194 5fbc 1174 a7bc
00000310: 57b6 b83c 8148 f43c 21bf f03c 99c7 38b9
00000320: 38e8 d93c 32c6 b4bc 92fe 45bc 82e8 bebc
00000330: d4f6 cc3b 8f57 e4bc 5f22 533b 9dbd 4fbc
00000340: 467d a1bc 28a9 efba 2ea8 9cbc c08a d6bb
00000350: 6df2 633b 7e49 463c f2bb 893c 3d5e f8bc
00000360: 9105 24bc 9bfb 24bb b45c 843c 6eb4 3d3c
00000370: c59c 933c e09c 783c 0b7d 6bbc 7984 2e3c
00000380: e911 42bc f493 08bd ed26 8dbc 034b 7d3c
00000390: bc5e a9ba 732f 263d ddb6 5b3c d526 e3bc
000003a0: f574 ff3c 8473 beb9 4582 f7bb f4e6 dfbc
000003b0: 81a7 d83c 43e0 e1bc 8041 abbc 8a61 1c3d
000003c0: d3a4 3ebc 5ee0 1f3d 7b2b a63c 75b7 1c3c
000003d0: 1308 9c3b d582 af3c af0d 9dbc 17d5 e23c
000003e0: c7d0 c73b 6c79 abbc aa77 c33c 9de4 313c
000003f0: e39b db3c df55 403c 6f44 dd3c afee e33a
-0.023601945 0.000116693125 0.02387719 0.00784858 -0.013101108 0.0088559175 0.031729106 0.00858214
-0.019852638 0.0011395388 0.018270995 0.0048382543 0.0008927767 -0.00077341584 0.026672877 -0.01857224
0.039702535 0.019329105 0.032452203 -0.015178136 -0.031238604 0.024695545 -0.005572616 -0.035430085
-0.01932664 0.026864266 0.029522883 -0.025004216 -0.013328059 -0.035377715 0.019160295 0.0065702423
0.011208113 -0.021114338 -0.02779271 -0.0102539025 0.013984909 -0.0031495665 -0.0017048197 -0.00064781104
0.008950096 -0.001509642 0.02392358 -0.01607291 -0.03191934 0.008995788 -0.02500713 0.032847814
-0.037122622 -0.023487115 0.004680586 0.0022146485 0.0021194897 -0.0043139737 -0.0033012806 0.007704299
0.022696238 -0.021292096 -0.022896282 0.018935125 0.0063255173 0.02200874 0.0024357922 0.020391755
0.016029244 -0.024574867 -0.030470569 0.002189262 0.037793886 0.0027089855 0.026392935 -0.012059052
0.015185666 0.029638998 -0.015735343 0.0042690625 -0.032971106 -0.03180046 -0.009809591 -0.011931053
0.02932732 -0.019147914 -0.034074705 -0.03110547 0.019388847 -0.007927776 0.005424784 -0.019566877
0.0058307913 -0.02682837 -0.0031175653 0.00037719088 -0.007303878 0.0039768866 0.011919523 0.024106953
0.008215758 0.020616505 0.029528491 -0.0003735468 -0.019469433 -0.0019781545 0.021682989 0.01873705
-0.01637015 -0.00957789 0.030956222 -0.030209504 0.040191207 -0.0007074358 0.009701895 0.03386695
0.02822201 0.029470256 -0.033242494 -0.007284962 0.019791288 0.015094241 0.02467734 0.013041541
-0.032766785 0.03330422 0.002855802 -0.028316673 0.023930226 0.02679748 0.016956668 0.010925791
0.03247964 0.020476343 -0.007967091 0.021859102 0.010619769 -0.0019345704 -0.00044561308 -0.02479819
-0.019081634 0.028787822 -0.0037443426 0.009596371 0.008548232 -0.021046527 -0.007448654 0.017375963
0.021929916 0.0099778045 -0.021846266 0.012791917 -0.023489334 -0.013751961 0.007688976 -0.0172875
0.02050806 0.036976136 -0.010109602 0.029077463 0.016301436 0.021069124 0.016167803 0.020346306
0.0160079 -0.026973208 -0.010013423 -0.012769164 -0.0296863 -0.0084755905 0.0055201855 0.03672918
0.0033280605 0.011139433 0.016430788 0.014351009 0.005611622 -0.006974453 0.010556722 -0.016042389
-0.012138899 0.027821884 0.019114226 0.021753429 0.009183335 0.0017078696 -0.022601971 -0.0076580015
-0.029850524 -0.021512322 -0.016365167 0.016962685 -0.020447904 0.023170283 -0.011675555 -0.0043379557
-0.008128451 0.015119538 -0.013646276 -0.020441087 0.022547884 0.029819729 0.029388012 -0.00017621963
0.026599988 -0.022067163 -0.01208462 -0.023304228 0.00625501 -0.027873782 0.0032216532 -0.012679485
-0.019713055 -0.0018284665 -0.019123163 -0.006547302 0.0034781948 0.012102483 0.016813252 -0.030318374
-0.010011093 -0.0025174383 0.016157486 0.011578662 0.01801909 0.015174121 -0.014373074 0.010651701
-0.01184509 -0.033344224 -0.017230475 0.015459779 -0.001292191 0.040572595 0.013410297 -0.027728477
0.0311837 -0.0003632569 -0.007553371 -0.027331807 0.02644706 -0.027572757 -0.020905256 0.038178958
-0.011635977 0.039032333 0.020284405 0.009565224 0.0047617047 0.02142469 -0.019171564 0.0276895
0.0060978862 -0.020931922 0.023860771 0.010857728 0.026807731 0.011739223 0.02701017 0.0017389859

0.bias f4 [2]
00000000: 1d3a 74bb b32c fb3c
-0.0037266084 0.030660963
